src/rm_opencv_aim/rm_detector/model/mlp.onnx (onnx, 312687 bytes, 6 tensors)

layers.1.weight f4 [120, 560]
0.008595534 -0.01461624 -0.015335137 0.042524 -0.007832961 -0.018660812 -0.06334986 -0.08199802
-0.04994262 -0.07747315 -0.06553674 -0.061945353 -0.030180762 0.0014266518 0.03339452 0.036201395
0.0023151317 -0.016097471 0.062025696 0.011244263 -0.010974501 0.04102242 -0.0010061396 0.012706038
0.021239232 -0.027512541 -0.06907768 -0.008128434 -0.02556718 -0.030066885 -0.065133356 -0.05479978
-0.02631096 -0.06290835 0.0056103435 0.013475548 0.02696492 0.04405858 0.036352493 0.059052046
-0.03222156 0.029475264 -0.052023686 -0.047121838 -0.03024458 -0.04267581 0.0007119138 0.008796293
0.025071582 -0.05428796 0.029305743 -0.074462734 -0.08095052 -0.08722612 -0.048678912 -0.024246937
0.012297143 -0.001764809 0.05378007 0.026092593 -0.031542357 -0.0029628873 -0.032043543 -0.05737568
-0.03193839 -0.046650544 -0.00018568011 -0.04347982 -0.08270472 -0.048395324 -0.07386707 -0.045406535
-0.046252053 -0.10869883 -0.03211006 0.06666483 0.05246975 -0.0064715315 -0.00633002 -0.008649611
-0.022629652 -0.0089344615 -0.05073002 0.026259655 -0.033972643 0.034942433 -0.018140446 0.017425397
-0.053265944 -0.08704878 -0.041212898 -0.036566213 -0.024116784 -0.011253648 -0.031422913 0.044750065
0.046291992 0.02965523 0.05474207 0.034126837 -0.02472968 -0.023452753 -0.0129743535 0.016343078
-0.010459023 0.01463184 0.04285764 -0.04949868 -0.045765206 -0.046911478 -0.04472268 -0.03835322
0.02316848 -0.030025948 0.053010557 0.03741388 -0.013420429 0.0014938529 -0.039401233 0.065103054
-0.029349942 -0.028194096 0.018876242 -0.055706803 0.0386778 -0.0029253364 -0.02481262 -0.031173663
-0.0806834 -0.06592693 0.050840173 0.004381647 0.01859683 -0.008778304 -0.014833449 0.031014442
0.011269656 0.041863497 0.05742556 0.02036971 -0.016688958 -0.07053347 -0.025744632 -0.04936439
-0.005216115 -0.008988548 -0.018987592 -0.06537769 -0.07518257 -0.060536828 0.012718765 0.045116603
0.0723877 0.0029966692 0.021733005 0.030764133 0.018358437 0.07295223 0.029556083 0.030827671
-0.05220075 -0.06625126 0.0020115688 0.026643956 0.0049051316 -0.03908155 -0.039813083 -0.066014916
-0.12136373 -0.10907263 0.026879353 0.09188073 0.10037645 0.051552966 0.06572329 0.038382962
0.03138184 0.07478124 0.073928036 0.0337605 -0.007912539 -0.04686584 -0.08960497 -0.044402592
0.009436141 -0.07316111 -0.04331403 -0.16039482 -0.11395017 -0.10341718 0.04796649 0.052589748
0.03633813 0.048332587 0.08124409 0.044732135 -0.0070823845 0.003906416 0.016057877 0.012181038
-0.07859186 -0.031058632 -0.008570357 -0.05180188 -0.007898106 -0.057231005 0.07102534 -0.06310599
-0.06137471 -0.02388747 0.045283787 0.035599437 0.039674755 0.021008912 1.0771047e-05 -0.01702689
-0.0014494031 0.02527693 0.014011385 0.012482591 -0.04225977 -0.07020917 0.008032121 -0.012048049
0.0246829 0.08038863 0.15661356 0.029633995 -0.005659388 -0.05113169 -0.0031696153 0.018151833
0.019664641 -0.10429225 -0.0513135 -0.0012552561 -0.0153813 0.042395152 0.021344198 0.01225336
-0.07108808 -0.010259 0.011222659 0.011367013 0.033709753 0.038166083 0.12753347 0.085779205
-0.006538005 0.007298574 0.050016437 0.046581022 1.8763163e-05 -0.0024270066 -0.017632928 -0.00307666
00000000: 48d4 0c3c f478 6fbc 3a40 7bbc a52d 2e3d
00000010: d255 00bc 8fde 98bc 92bd 81bd 94ee a7bd
00000020: a290 4cbd 3eaa 9ebd 2038 86bd 69ba 7dbd
00000030: a53d f7bc 7efe ba3a b1c8 083d ea47 143d
00000040: 77b9 173b d8de 83bc a80e 7e3d db39 383c
00000050: 65ce 33bc 2007 283d 71e0 83ba fc2c 503c
00000060: e6fd ad3c fb61 e1bc 9978 8dbd 202d 05bc
00000070: 4372 d1bc d44e f6bc a364 85bd bc75 60bd
00000080: 158a d7bc 18d6 80bd f9d6 b73b 8bc8 5c3c
00000090: 89e5 dc3c c576 343d 5ae6 143d 8fe0 713d
000000a0: c1fa 03bd 1c76 f13c ca16 55bd d402 41bd
000000b0: 7bc3 f7bc d5cc 2ebd ba9f 3a3a 541e 103c
000000c0: eb62 cd3c 0d5d 5ebd 9912 f03c eb7f 98bd
000000d0: 63c9 a5bd 9ca3 b2bd 8a63 47bd 83a1 c6bc
000000e0: f579 493c 2a51 e7ba 7e48 5c3d 22c0 d53c
000000f0: 8f32 01bd 002d 42bb 1740 03bd c302 6bbd
00000100: d4d1 02bd a414 3fbd 20b3 42b9 e517 32bd
00000110: 1861 a9bd 2d3a 46bd 9e47 97bd 34fc 39bd
00000120: cb72 3dbd 7e9d debd d785 03bd 9287 883d
00000130: 85ea 563d 240f d4bb 0e6c cfbb 19b7 0dbc
00000140: d261 b9bc d961 12bc 48ca 4fbd 7d1e d73c
00000150: e626 0bbd cc1f 0f3d 469b 94bc b5bf 8e3c
00000160: 642d 5abd a146 b2bd dbce 28bd 74c6 15bd
00000170: 9090 c5bc 3961 38bc 50b5 00bd d84b 373d
00000180: ac9c 3d3d 86ef f23c 3939 603d 95c8 0b3d
00000190: e695 cabc fd1f c0bc 6292 54bc ebe1 853c
000001a0: 525c 2bbc 63ba 6f3c 7e8b 2f3d 21bf 4abd
000001b0: 4c74 3bbd 4026 40bd 212f 37bd 4418 1dbd
000001c0: d3cb bd3c faf8 f5bc 9921 593d 4c3f 193d
000001d0: 5ce1 5bbc 63cd c33a 3063 21bd c054 853d
000001e0: 4a6f f0bc 4ef7 e6bc 59a2 9a3c d12c 64bd
000001f0: 9d6c 1e3d 00b7 3fbb d643 cbbc e95f ffbc
00000200: 573d a5bd b304 87bd c93d 503d eb93 8f3b
00000210: 6158 983c e0d2 0fbc ff07 73bc 0012 fe3c
00000220: 5da4 383c 0f79 2b3d 1037 6b3d 61de a63c
00000230: 48b7 88bc da73 90bd 68e6 d2bc 5132 4abd
00000240: f2eb aabb b444 13bc de8b 9bbc bde4 85bd
00000250: 52f9 99bd 77f5 77bd 5e62 503c 30cc 383d
00000260: 0140 943d c463 443b 6a09 b23c 1005 fc3c
00000270: 6f64 963c fb67 953d 991f f23c 508a fc3c
00000280: 74d0 55bd beae 87bd 86d4 033b 6d44 da3c
00000290: 3abb a03b fa13 20bd 0b13 23bd d432 87bd
000002a0: 8c8d f8bd 7961 dfbd 1732 dc3c f72b bc3d
000002b0: 2b92 cd3d 3429 533d ef99 863d 7437 1d3d
000002c0: 3f8a 003d e826 993d 9567 973d 7348 0a3d
000002d0: 98a3 01bc 65f6 3fbd cf82 b7bd 7edf 35bd
000002e0: 0b9a 1a3c 7ed5 95bd 0d6a 31bd 8a3e 24be
000002f0: b55e e9bd 63cc d3bd 8378 443d 5968 573d
00000300: 4ad7 143d 64f8 453d 4d63 a63d 0b39 373d
00000310: 5913 e8bb 6401 803b cf8b 833c fa92 473c
00000320: c5f4 a0bd ac6e febc af6a 0cbc 352e 54bd
00000330: 0f67 01bc 0f6b 6abd bc75 913d b73d 81bd
00000340: 0c64 7bbd a8af c3bc 7e7b 393d b7d0 113d
00000350: ff81 223d e21a ac3c 4bb5 3437 fa7b 8bbc
00000360: e6f9 bdba 9011 cf3c 0290 653c c883 4c3c
00000370: 9518 2dbd d3c9 8fbd 2899 033c 2e65 45bc
00000380: cb33 ca3c cba2 a43d 4e5f 203e fec2 f23c
00000390: 6372 b9bb 776f 51bd 52b9 4fbb 27b3 943c
000003a0: be17 a13c 2d97 d5bd 1b2e 52bd 6887 a4ba
000003b0: d901 7cbc 8aa6 2d3d 07da ae3c 51c2 483c
000003c0: a196 91bd 5d15 28bc 3edf 373c b53c 3a3c
000003d0: 3d13 0a3d 0a54 1c3d 2298 023e 02ad af3d
000003e0: c33c d6bb e028 ef3b 09de 4c3d becb 3e3d
000003f0: 9665 9d37 6a0e 1fbb ee72 90bc caa1 49bb

layers.1.bias f4 [120]
-0.02603833 -0.02175262 0.08785804 0.21274923 -0.21113053 -0.16989775 -0.16544522 -0.108532295
0.009637297 0.21750228 0.09052523 0.35562274 0.10781787 -0.11880762 -0.07042115 0.1725865
0.21789776 -0.005435063 -0.08909091 -0.09129056 -0.038891193 -0.16741139 0.022990346 -0.040740684
0.02668941 -0.027199617 0.40963265 -0.03636837 0.3326251 0.23476337 0.10593221 -0.025060028
-0.13012758 -0.06461172 0.393461 -0.1703594 0.29856905 0.30787846 -0.062075496 0.047431536
0.33178565 -0.038559396 -0.07980287 0.09662203 -0.040986292 -0.088559575 -0.058304723 0.024939697
-0.085897155 -0.029335273 -0.022142053 -0.15723328 -0.22844088 0.27174827 -0.022544881 -0.11443442
0.36394566 -0.0917722 -0.085908435 -0.03222554 -0.03906266 -0.008983783 -0.12822466 -0.019920789
0.013742993 0.31715983 -0.09977949 0.012668703 -0.22767004 -0.06718251 -0.106451966 -0.063615575
0.25386605 0.020430807 0.15609741 -0.06708157 0.3254035 0.0813857 -0.023468595 -0.07470051
0.39986786 -0.14015312 0.06727579 0.027245421 -0.07117933 -0.15331903 -0.03390559 0.3433402
0.22248451 0.41904038 -0.07474437 -0.07009156 0.0017431963 -0.1197097 -0.15297438 -0.20576474
0.0018696984 -0.10750014 0.24993181 0.21856219 -0.07094635 0.21254522 -0.12865433 0.24462315
-0.12844568 -0.108240195 -0.16964266 -0.06739753 -0.08934548 -0.09876347 0.07418034 -0.15349531
0.077482216 -0.12154847 -0.0917506 -0.09616115 0.00334345 0.088210516 -0.10529679 -0.04617335
00000000: 564e d5bc 8d32 b2bc ebee b33d efda 593e
00000010: 9a32 58be adf9 2dbe 796a 29be 2e46 debd
00000020: c1e5 1d3c ebb8 5e3e 4b65 b93d 2f14 b63e
00000030: 9ecf dc3d 6951 f3bd f738 90bd 84ba 303e
00000040: 9720 5f3e 9d18 b2bb 4c75 b6bd 8cf6 babd
00000050: 5f4c 1fbd e46d 2bbe 4056 bc3c b4df 26bd
00000060: c0a3 da3c bbd1 debc 5fbb d13e 00f7 14bd
00000070: d64d aa3e cf65 703e fdf2 d83d b04a cdbc
00000080: 2a40 05be 2653 84bd b873 c93e b272 2ebe
00000090: 0bde 983e 3fa2 9d3e e042 7ebd 9247 423d
000000a0: cfdf a93e 75f0 1dbd b06f a3bd c5e1 c53d
000000b0: 3ee1 27bd b95e b5bd efd0 6ebd 564e cc3c
000000c0: d9ea afbd 8750 f0bc 4063 b5bc c301 21be
000000d0: 68ec 69be 9722 8b3e 0bb0 b8bc 985c eabd
000000e0: 1657 ba3e 10f3 bbbd c3f0 afbd eefe 03bd
000000f0: 2b00 20bd b830 13bc 534d 03be ec30 a3bc
00000100: 4a2a 613c c662 a23e 3059 ccbd 6490 4f3c
00000110: 5622 69be fc96 89bd 7d03 dabd e248 82bd
00000120: bbfa 813e 825e a73c 00d8 1f3e 1062 89bd
00000130: 4a9b a63e 8cad a63d 3641 c0bc 95fc 98bd
00000140: 7bbb cc3e 4d84 0fbe e4c7 893d ca31 df3c
00000150: 78c6 91bd aaff 1cbe 97e0 0abd 49ca af3e
00000160: fbd2 633e 768c d63e 9413 99bd 2a8c 8fbd
00000170: f67b e43a 5c2a f5bd 51a5 1cbe feb3 52be
00000180: ab10 f53a 0929 dcbd 20ee 7f3e c4ce 5f3e
00000190: 524c 91bd 74a5 593e f6bd 03be 7e7e 7a3e
000001a0: 4487 03be 09ad ddbd ceb6 2dbe b707 8abd
000001b0: c3fa b6bd 8144 cabd ddeb 973d e02d 1dbe
000001c0: ffae 9e3d 67ee f8bd bde7 bbbd 23f0 c4bd
000001d0: c81d 5b3b b7a7 b43d d8a5 d7bd 4420 3dbd

layers.3.weight f4 [84, 120]
-0.090249136 -0.12498902 -0.017860824 0.10873452 -0.03894523 -0.02264418 -0.04316616 0.021417791
-0.07323014 -0.18135019 -0.090627186 0.2820522 -0.0628679 -0.0368056 0.05681703 -0.167412
-0.002262732 0.09688032 0.09199946 -0.03865549 -0.0572676 -0.1336317 0.19893366 -0.05371916
0.021541424 0.009547969 0.19412705 0.11704086 0.16278945 0.051053736 0.03697279 -0.0241139
-0.022804793 0.071092054 0.15702622 0.031128585 -0.017740786 0.14015566 0.08336292 -0.120826
0.11455043 -0.016238883 -0.03826715 -0.10954296 0.06758252 0.08349258 -0.009166451 -0.029069502
-0.026035609 0.10976569 -0.03557409 -0.2294376 0.0029895282 0.045631934 0.052195095 0.05662469
0.1703028 0.13825938 0.08357257 0.04548826 -0.016713843 -0.052660216 0.07468619 -0.050130643
-0.14851299 0.21725553 -0.06448746 -0.2337309 0.047367565 -0.1063132 0.01085685 -0.08950882
0.09257382 -0.00914808 0.104941584 -0.08794593 0.039808802 0.0019354357 -0.07055702 0.030199446
0.22997215 0.039831936 -0.094234794 -0.064405024 0.03629227 0.11795621 -0.055639178 0.06133325
-0.035366062 0.35778746 0.01579667 -0.17715639 -0.00560274 -0.017034331 0.008268257 0.13133839
0.013907696 0.16505414 0.104846366 0.07067193 -0.058566563 0.11091153 -0.06938969 -0.025853217
-0.009369463 0.0204204 -0.028709313 -0.003971008 0.10931182 -0.16272996 -0.014592405 -0.010123427
-0.053893257 0.005861002 0.013736478 0.09985189 -0.07858367 -0.12017063 0.095605634 0.037372883
-0.050838195 0.04165171 -0.006956328 -0.051075988 -0.009471145 -0.05434135 -0.09565962 0.00872057
-0.06397672 0.006407001 -0.055824336 -0.07228288 -0.101625755 0.065243416 0.053247657 -0.015544194
-0.11436634 0.042817898 -0.06142272 -0.013403128 0.032699708 -0.032702345 -0.073367454 0.005551194
-0.09047937 -0.099074684 0.011850198 0.0649157 0.0411657 -0.022689622 -0.074223146 -0.03902484
-0.07359233 -0.061997302 0.025395297 0.0034643097 -0.0063409093 -0.033365283 -0.046778813 -0.074867204
-0.07090142 -0.08895169 -0.0014991509 -0.041333277 0.047296543 0.021968663 -0.016587893 0.02332193
-0.06167194 0.019522956 -0.005040894 -0.0832287 0.06250475 0.004215994 0.022997689 -0.038670436
0.049779363 0.0015842449 -0.03002819 -0.06114292 0.02428277 0.044011306 -0.05399425 -0.029934598
0.013673013 -0.06667511 -0.045471516 -0.06975813 -0.082361065 -0.0655001 0.045034114 0.058844082
0.016408006 -0.044697218 -0.0057996647 0.06565384 0.03634454 -0.0069270483 -0.026316142 -0.06556811
-0.046586495 0.024741368 0.05148056 -0.122345984 -0.07609058 0.0018989677 -0.0015603907 -0.048731882
0.04233772 -0.013394661 0.030681267 -0.002440316 0.038439907 -0.025018023 0.048970107 -0.06672998
-0.064245194 -0.059075236 0.0123374155 -0.082012385 -0.07735301 -0.046315435 -0.067007534 -0.08981039
-0.037060224 -0.09120127 0.029651744 0.0032171623 -0.0057660653 -0.035824127 -0.0802532 -0.101637885
-0.05139774 0.008941784 -0.034657467 -0.0030008864 -0.09450522 0.068983935 0.038692653 0.06683824
-0.08992936 0.022996878 -0.071991615 0.030544756 -0.08407608 -0.0885729 -0.018880367 0.0056512146
-0.055678144 -0.056805994 0.03290156 0.052537948 -0.008364061 0.008476646 0.02736201 -0.086928874
00000000: 8ad4 b8bd 3efa ffbd dd50 92bc 34b0 de3d
00000010: 0985 1fbd 4a80 b9bc 00cf 30bd 5d74 af3c
00000020: aff9 95bd ddb3 39be bf9a b9bd 2569 903e
00000030: e3c0 80bd 78c1 16bd f9b8 683d 0d6e 2bbe
00000040: 584a 14bb 3069 c63d 366a bc3d 3855 1ebd
00000050: 6e91 6abd c0d6 08be 44b5 4b3e 9f08 5cbd
00000060: a477 b03c 166f 1c3c 3ec9 463e 1eb3 ef3d
00000070: 47b2 263e b91d 513d c870 173d 838a c5bc
00000080: 1ed1 babc b698 913d 7bcb 203e 6001 ff3c
00000090: 2055 91bc f784 0f3e 2eba aa3d 9f73 f7bd
000000a0: 6a99 ea3d 6807 85bc 04be 1cbd 0f58 e0bd
000000b0: b468 8a3d 28fe aa3d e22e 16bc 2a23 eebc
000000c0: a148 d5bc d6cc e03d 23b6 11bd b1f1 6abe
000000d0: f6eb 433b 8de8 3a3d 86ca 553d 4aef 673d
000000e0: db63 2e3e de93 0d3e 1828 ab3d e651 3a3d
000000f0: 78eb 88bc 3db2 57bd 13f5 983d ca55 4dbd
00000100: ca13 18be 3c78 5e3e 0012 84bd 2757 6fbe
00000110: 7e04 423d bcba d9bd eee0 313c 6650 b7bd
00000120: 5897 bd3d d4e1 15bc 9deb d63d ff1c b4bd
00000130: 8e0e 233d 72ae fd3a 3380 90bd d464 f73c
00000140: d27d 6b3e d026 233d 2cfe c0bd c8e6 83bd
00000150: 34a7 143d 0793 f13d e8e5 63bd 9338 7b3d
00000160: 01dc 10bd eb2f b73e 0568 813c 7c68 35be
00000170: 3197 b7bb 958b 8bbc 9577 073c 927d 063e
00000180: 1bdd 633c f403 293e b1b9 d63d 72bc 903d
00000190: 7ee3 6fbd 9625 e33d 2f1c 8ebd 20ca d3bc
000001a0: 6082 19bc af48 a73c cb2f ebbc 3b1f 82bb
000001b0: e0de df3d afa2 26be fc14 6fbc bbdc 25bc
000001c0: 2dbf 5cbd a60d c03b f70e 613c 267f cc3d
000001d0: 7af0 a0bd 051c f6bd e3cc c33d 4f14 193d
000001e0: b63b 50bd fc9a 2a3d e9f1 e3bb 0e35 51bd
000001f0: dd2c 1bbc 0995 5ebd 31e9 c3bd b9e0 0e3c
00000200: 3a06 83bd d2f1 d13b 0fa8 64bd 0c09 94bd
00000210: 2a21 d0bd 579e 853d 371a 5a3d 13ad 7ebc
00000220: e638 eabd d261 2f3d 6496 7bbd cb98 5bbc
00000230: 21f0 053d e5f2 05bd ad41 96bd cae6 b53b
00000240: 3f4d b9bd abe7 cabd 5527 423c 86f2 843d
00000250: 5d9d 283d 96df b9bc 4e02 98bd 83d8 1fbd
00000260: 93b7 96bd e2f0 7dbd cc09 d03c 7909 633b
00000270: 67c7 cfbb 09aa 08bd 249b 3fbd fa53 99bd
00000280: c434 91bd 4e2c b6bd 287f c4ba 154d 29bd
00000290: 05ba 413d a0f7 b33c 55e3 87bc a20d bf3c
000002a0: b79b 7cbd 9bee 9f3c 152e a5bb cf73 aabd
000002b0: 7e02 803d 5226 8a3b a665 bc3c e464 1ebd
000002c0: 72e5 4b3d 70a6 cf3a aefd f5bc 0071 7abd
000002d0: a9ec c63c 3345 343d 1329 5dbd 6739 f5bc
000002e0: c604 603c f68c 88bd 5740 3abd 5add 8ebd
000002f0: ebac a8bd eb24 86bd b175 383d 7e06 713d
00000300: 156a 863c 6e14 37bd 1d0b bebb 8575 863d
00000310: 03de 143d 4bfc e2bb f394 d7bc 9348 86bd
00000320: 7bd1 3ebd 69ae ca3c 48dd 523d 8890 fabd
00000330: 61d5 9bbd c8e6 f83a 0686 ccba 159b 47bd
00000340: 516a 2d3d 4875 5bbc 4857 fb3c b5ed 1fbb
00000350: 2a73 1d3d 99f2 ccbc e194 483d baa9 88bd
00000360: fc92 83bd e0f8 71bd df22 4a3c 1cf6 a7bd
00000370: 416b 9ebd 41b5 3dbd 3f3b 89bd 82ee b7bd
00000380: 76cc 17bd bbc7 babd 37e8 f23c 07d7 523b
00000390: 43f1 bcbb 52bc 12bd ca5b a4bd 8627 d0bd
000003a0: 7086 52bd 8f80 123c fdf4 0dbd 85aa 44bb
000003b0: f48b c1bd 7347 8d3d 307c 1e3d 7de2 883d
000003c0: e22c b8bd f363 bc3c 5770 93bd ff38 fa3c
000003d0: 1430 acbd b565 b5bd 00ab 9abc d32d b93b
000003e0: c40e 64bd 67ad 68bd c9c3 063d 0832 573d
000003f0: 6a09 09bc a1e1 0a3c 4b26 e03c c407 b2bd

layers.3.bias f4 [84]
0.14753002 0.0013630779 0.012607558 -0.13505831 -0.109450094 0.07463653 -0.057932835 -0.029203264
-0.14304586 0.23855066 0.034326114 0.2421248 -0.10964375 -0.075901546 0.10488602 -0.014837758
0.06694379 0.056681458 0.27038988 -0.13569598 0.107875496 0.2271163 -0.07233074 0.031169953
0.35714576 -0.08946565 0.017568432 0.003972561 -0.09835251 0.13354498 0.08033202 0.011529776
0.2506687 0.036458768 0.041946687 -0.0009439788 0.24188344 -0.0735673 -0.051252287 -0.07924822
0.15344332 -0.16814543 -0.10571123 0.047048606 0.006740091 0.2982038 -0.047849193 -0.12266488
-0.032949988 -0.17098 -0.07842724 -0.11428896 0.07373257 0.1101669 -0.091674 -0.047452707
0.09598269 0.07678945 -0.019640625 -0.20034069 0.034231476 -0.11072543 0.14255263 -0.13047864
-0.08825613 -0.08586837 -0.042096883 0.16617686 0.022768466 -0.020371264 0.22476713 -0.07241777
0.080163404 -0.0010083064 -0.08689554 -0.09461874 -0.09881342 0.0102632325 -0.009025174 0.20811668
-0.11438673 -0.05215026 0.10195317 0.07944894
00000000: 1c12 173e 4ea9 b23a ee8f 4e3c ba4c 0abe
00000010: 5f27 e0bd 09db 983d fb4a 6dbd af3b efbc
00000020: 9d7a 12be a046 743e 8a99 0c3d 90ef 773e
00000030: e78c e0bd 4572 9bbd 7bce d63d 111a 73bc
00000040: d319 893d d12a 683d 8b70 8a3e e3f3 0abe
00000050: d4ed dc3d 2d91 683e 2422 94bd 2158 ff3c
00000060: cfdb b63e c439 b7bd aceb 8f3c 422c 823b
00000070: 0a6d c9bd 04c0 083e 1d85 a43d 63e7 3c3c
00000080: a657 803e ca55 153d 4ad0 2b3d 5875 77ba
00000090: 4bb0 773e 74aa 96bd ebed 51bd e44c a2bd
000000a0: 3f20 1d3e 512e 2cbe 217f d8bd 0ab6 403d
000000b0: fbdb dc3b 2bae 983e 84fd 43bd b937 fbbd
000000c0: 91f6 06bd 6215 2fbe 769e a0bd 5510 eabd
000000d0: 1a01 973d 2f9f e13d 94bf bbbd c55d 42bd
000000e0: 9392 c43d ca43 9d3d 60e5 a0bc 1c26 4dbe
000000f0: 4e36 0c3d 04c4 e2bd 51f9 113e 319c 05be
00000100: a1bf b4bd c2db afbd c86d 2cbd 442a 2a3e
00000110: ef84 ba3c a3e1 a6bc 5b29 663e c54f 94bd
00000120: b62c a43d 2629 84ba 4af6 b1bd 78c7 c1bd
00000130: b15e cabd 1e27 283c 53de 13bc 8a1c 553e
00000140: 9743 eabd 839b 55bd d3cc d03d 20b6 a23d

layers.5.weight f4 [5, 84]
0.1539716 0.06884586 0.067030355 -0.15202487 -0.025285637 -0.21593651 0.15082678 -0.02859611
-0.009635995 -0.31432536 0.050413765 0.12837674 -0.10576618 0.095802136 0.19833466 -0.05387693
-0.14274248 0.14845738 -0.3148574 0.1460907 -0.22755893 0.0027399326 -0.004167738 -0.19906276
-0.2744923 0.088725835 -0.11106242 0.18111539 0.09991556 0.12140331 -0.3973884 -0.0028216785
-0.4035608 0.12965016 0.055092953 0.08384663 -0.07203835 0.025882063 0.082051866 -0.17632346
-0.002219593 0.04305554 -0.1948431 0.06640789 -0.068848826 0.094695844 -0.109694496 0.08538492
0.01893987 -0.23727031 0.021324553 -0.0492806 -0.13749029 -0.10196021 -0.16319346 -0.2533362
0.03315821 0.15241517 -0.09899538 0.11900478 -0.13404235 -0.14554332 -0.23707603 -0.044430085
0.06938613 0.020323647 0.10637838 -0.26514873 -0.13399887 -0.07739097 -0.2497902 -0.170877
-0.0936069 -0.1529899 -0.016793817 -0.12534443 -0.122802205 0.09267887 -0.07618621 -0.06774878
-0.15405458 0.011687585 -0.09689921 0.09876129 0.059568398 0.0049146176 0.044047344 0.0048139347
0.034699935 0.11553385 -0.13745715 0.067485906 -0.04664906 0.08265737 -0.10582711 -0.19768623
-0.05910051 -0.10197418 -0.16797851 -0.0013449286 -0.07803132 -0.08164843 -0.12626244 0.1516427
0.06940352 0.054711487 -0.009712539 0.014401468 0.15030672 -0.07387787 0.0819769 -0.010567037
0.15809424 -0.2230905 0.03036459 0.048624944 0.02864206 -0.14163662 -0.0893039 0.16785231
0.06329608 -0.05224634 -0.21803647 -0.07934495 0.10258223 -0.014238312 0.18506147 -0.2890666
-0.07506654 -0.117485315 -0.06017178 -0.042595882 0.060704608 -0.114484705 0.047608007 -0.056754254
-0.15738167 -0.09008613 -0.013469617 0.00059249497 -0.11297027 -0.13206214 0.050655745 0.02691357
-0.025752803 0.08478714 0.041265722 -0.08744894 -0.052172244 0.029782197 -0.036881387 -0.10160793
0.11101253 0.048041224 0.082880385 0.13706584 -0.24058203 0.0760977 0.028986685 0.07209077
0.14697328 -0.0787623 -0.12390644 -0.0463956 0.018564621 -0.05941207 -0.21754447 -0.06330646
-0.24016468 0.07350001 0.06397787 -0.15045947 -0.11604756 -0.10058732 -0.38701242 0.009019527
0.004581992 -0.22062223 0.112175435 -0.112259164 0.047112327 -0.045522295 0.10283939 0.023943787
0.0694451 -0.24251528 0.037518613 -0.04072821 -0.15466347 -0.31225458 0.08141253 -0.19502562
0.1040705 -0.020547215 -0.1082161 -0.35567614 0.014685181 0.038712077 -0.3274746 -0.02407331
0.04756693 0.067480415 0.01563712 -0.2862428 0.0022758937 0.053940445 -0.06212622 0.11062298
-0.054403327 -0.32072026 -0.19919726 0.16960786 0.032741956 -0.27843243 -0.0075134444 -0.10904967
0.0023255835 -0.034471475 -0.17775042 -0.08957546 0.11644498 0.14890319 0.042425364 0.09653632
-0.14706312 0.17899656 0.0592636 -0.31118858 0.13099682 0.09456079 0.1578206 -0.22534707
-0.09904958 0.04506338 -0.05692546 -0.24523239 -0.05901427 0.047478326 0.12547694 -0.0070012785
0.12638462 0.06699597 -0.031113701 0.019732252 -0.17476293 0.16342616 0.10272117 -0.28740114
-0.27533472 -0.06717548 0.27473032 -0.14735359 0.10630403 0.08871702 -0.006440231 -0.22496773
00000000: bbaa 1d3e 0fff 8c3d 3647 893d 68ac 1bbe
00000010: d323 cfbc 761e 5dbe 5672 1a3e 6442 eabc
00000020: 4be0 1dbc 41ef a0be aa7e 4e3d 3175 033e
00000030: f09b d8bd e933 c43d 3e18 4b3e 0eae 5cbd
00000040: 162b 12be 3605 183e fd34 a1be cd98 153e
00000050: 3505 69be 7190 333b 8591 88bb 1cd7 4bbe
00000060: 418a 8cbe e4b5 b53d b274 e3bd 5076 393e
00000070: 87a0 cc3d 4ca2 f83d 7e76 cbbe e9eb 38bb
00000080: 859f cebe 03c3 043e 26a9 613d c8b7 ab3d
00000090: d888 93bd 9f06 d43c cf0a a83d 238e 34be
000000a0: 9776 11bb 025b 303d f384 47be dc00 883d
000000b0: 9d00 8dbd e5ef c13d 82a7 e0bd 4ade ae3d
000000c0: c927 9b3c fdf6 72be d4b0 ae3c 74da 49bd
000000d0: 41ca 0cbe 84d0 d0bd 301c 27be 48b5 81be
000000e0: e7d0 073d b912 1c3e 17be cabd c7b8 f33d
000000f0: 6642 09be 4f09 15be 0fc4 72be 52fc 35bd
00000100: 511a 8e3d c77d a63c e8dc d93d 93c1 87be
00000110: 0037 09be 287f 9ebd 01c9 7fbe 61fa 2ebe
00000120: f9b4 bfbd 62a9 1cbe 3093 89bc 4a5a 00be
00000130: b97f fbbd 6bce bd3d 8407 9cbd dfbf 8abd
00000140: 7cc0 1dbe 497d 3f3c 1873 c6bd 5c43 ca3d
00000150: fefd 733d cd0a a13b fd6a 343d 36be 9d3b
00000160: 8521 0e3d 039d ec3d 91c1 0cbe 0d36 8a3d
00000170: 1613 3fbd 4448 a93d e2bb d8bd 426e 4abe
00000180: 6013 72bd d7d7 d0bd 8f02 2cbe 5148 b0ba
00000190: e2ce 9fbd 4b37 a7bd f14a 01be 3948 1b3e
000001a0: 6f23 8e3d 2719 603d 5721 1fbc 23f4 6b3c
000001b0: 01ea 193e 484d 97bd 81e3 a73d 5e21 2dbc
000001c0: 75e3 213e d671 64be 29bf f83c f32a 473d
000001d0: c1a2 ea3c 3109 11be f7e4 b6bd 7ae1 2b3e
000001e0: 60a1 813d 4200 56bd f444 5fbe 9b7f a2bd
000001f0: a216 d23d cf47 69bc c180 3d3e 8a00 94be
00000200: 7cbc 99bd 249c f0bd af76 76bd 0579 2ebd
00000210: 65a5 783d f576 eabd 9d00 433d 2677 68bd
00000220: a928 21be 147f b8bd abaf 5cbc aa51 1b3a
00000230: f55c e7bd 4c3b 07be 667c 4f3d d979 dc3c
00000240: 8bf7 d2bc e1a4 ad3d 3f06 293d 6e18 b3bd
00000250: 90b2 55bd cbf9 f33c f010 17bd d217 d0bd
00000260: 8a5a e33d e0c6 443d 31bd a93d fd5a 0c3e
00000270: 235b 76be 1cd9 9b3d 7c75 ed3c 53a4 933d
00000280: 2a80 163e 214e a1bd a9c2 fdbd 5009 3ebd
00000290: d514 983c 125a 73bd fac3 5ebe d1a6 81bd
000002a0: bbed 75be 2c87 963d d406 833d 0c12 1abe
000002b0: 58aa edbd ba00 cebd 7e26 c6be a3c6 133c
000002c0: 8924 963b cbea 61be 3cbc e53d 22e8 e5bd
000002d0: dbf8 403d 9675 3abd 759d d23d c325 c43c
000002e0: 3c39 8e3d ed55 78be 1ead 193d a0d2 26bd
000002f0: 1a60 1ebe d5df 9fbe 9dbb a63d ccb4 47be
00000300: ea22 d53d a252 a8bc 67a0 ddbd 2f1b b6be
00000310: 1d9a 703c 8e90 1e3d c0aa a7be 6435 c5bc
00000320: 8bd5 423d 2c33 8a3d 6b19 803c 6b8e 92be
00000330: 2927 153b a8f0 5c3d 1078 7ebd 4d8e e23d
00000340: 06d6 5ebd 7235 a4be 5efa 4bbe afad 2d3e
00000350: 6e1c 063d b28e 8ebe 5733 f6bb 6f55 dfbd
00000360: d168 183b f631 0dbd 3504 36be 5773 b7bd
00000370: b57a ee3d 147a 183e 38c6 2d3d d6b4 c53d
00000380: b797 16be e04a 373e 63be 723d 1c54 9fbe
00000390: 0824 063e 16a9 c13d b99b 213e 62c1 66be
000003a0: 82da cabd 6194 383d ac2a 69bd 331e 7bbe
000003b0: f2b8 71bd a278 423d 077d 003e fb6a e5bb
000003c0: f86a 013e 2f35 893d 29e2 febc 88a5 a13c
000003d0: 0ef5 32be 3059 273e 7a5f d23d 3e26 93be
000003e0: acf8 8cbe 4c93 89bd 74a9 8c3e dce3 16be
000003f0: edb5 d93d 45b1 b53d 9308 d3bb f15d 66be

layers.5.bias f4 [5]
-0.007623558 -0.078617714 -0.042670015 0.2016786 0.085237324
00000000: 0acf f9bb 5302 a1bd c1c6 2ebd d684 4e3e
00000010: e890 ae3d
