src/rm_opencv_aim/rm_detector/model/mlp.onnx (onnx, 312347 bytes, 6 tensors)

layers.1.weight f4 [120, 560]
0	0xbdbd580e	-0.09245311
1	0xbd9a4a45	-0.07533697
2	0xbe1e1eeb	-0.15441482
3	0xbe18414c	-0.14868659
4	0xbd9b8005	-0.07592777
5	0xbcf1d5b9	-0.029520856
6	0x3a9bd6d3	0.0011889584
7	0x3d5f53be	0.054523222
8	0x3d82358b	0.06357869
9	0x3d04b348	0.03239754
10	0x3caa4130	0.020783037
11	0x3ce9a1f7	0.028519614
12	0xbce682c2	-0.028138522
13	0xbe1278a8	-0.14303839
14	0xbe25fe6a	-0.16210333
15	0xbe109730	-0.14120173
16	0xbe1b61ab	-0.15173976
17	0xbe24e67d	-0.1610355
18	0xbe133cac	-0.14378613
19	0xbda57833	-0.08079567
20	0xbdf9f502	-0.12204935
21	0xbe0dfbfb	-0.13865654
22	0xbdebe95a	-0.11519118
23	0xbdcdbc06	-0.10045628
24	0x3c864554	0.01639048
25	0x3da7d484	0.08194831
26	0x3cdb3ce1	0.026762428
27	0x3ca8e40b	0.020616552
28	0x3b1e7339	0.0024177565
29	0xbb65adac	-0.0035046143
30	0xbbc679fb	-0.0060570217
31	0xbd67f8f1	-0.056633893
32	0xbd69fbbc	-0.05712484
33	0xbe45de8c	-0.19323176
34	0xbe09b2f2	-0.13447168
35	0xbe4b1229	-0.19831146
36	0xbe36fa68	-0.1786896
37	0xbde0b529	-0.109720536
38	0xbd8c43ba	-0.06848855
39	0xbd43e6ce	-0.047827534
40	0xbe441a6c	-0.19150704
41	0xbe282f7e	-0.16424367
42	0xbde791d8	-0.11307114
43	0xbe00678b	-0.12539499
44	0xbd8649a7	-0.06557017
45	0x3d3011cd	0.042985726
46	0x3b285418	0.002568489
47	0x3d926192	0.07147516
48	0x3d8281c5	0.06372408
49	0x3d0c827f	0.03430414
50	0x3d60504c	0.054764077
51	0xbd5b19d2	-0.05349142
52	0xbe0bb488	-0.13643086
53	0xbe3be74b	-0.1834995
54	0xbe39fb85	-0.18162353
55	0xbe56010d	-0.20898838
56	0xbe2cb5dd	-0.1686625
57	0xbde12818	-0.109939754
58	0xbdff9dff	-0.12481307
59	0xbe0ec4ba	-0.13942233
60	0xbda6fec0	-0.081540585
61	0xbe09bc95	-0.13450845
62	0xbda5b183	-0.08090498
63	0xbcb79b01	-0.022412779
64	0x3d0a149f	0.033711072
65	0x3ce3ed85	0.02782322
66	0x3c1fe884	0.009760026
67	0x3cd0b2f6	0.02547596
68	0x3d02f029	0.031967316
69	0x3b9a6bab	0.004712542
70	0x3d41597f	0.04720449
71	0xbd15efd7	-0.036605682
72	0xbdfe2d07	-0.12410932
73	0xbe730213	-0.2373126
74	0xbe733cc8	-0.23753655
75	0xbe3289c3	-0.17435364
76	0xbe48c6d9	-0.19607104
77	0xbe0ee44e	-0.13954279
78	0xbe0b87f0	-0.13626075
79	0xbe4ff280	-0.2030735
80	0xbdafb38a	-0.08579166
81	0xbd869fd7	-0.06573456
82	0xbd1e38d7	-0.038628425
83	0x3c94557d	0.01810717
84	0x3c664310	0.014054075
85	0x3de92431	0.11383856
86	0x3cd7cc44	0.026342519
87	0x3d5df04f	0.054184254
88	0x3d3c5d07	0.045987155
89	0x3dcaf584	0.0991011
90	0x3d8c5f0f	0.068540685
91	0xbcd73ff7	-0.026275618
92	0xbe3621eb	-0.17786376
93	0xbe4d67c4	-0.20059115
94	0xbe09e294	-0.13465339
95	0xbe14693f	-0.14493273
96	0xbd5592de	-0.052142017
97	0xbd99e14d	-0.07513676
98	0xbe030775	-0.12795813
99	0xbe171888	-0.14755452
100	0x3c204d59	0.009784066
101	0xbd3ed68b	-0.046591323
102	0xbd55abe0	-0.052165866
103	0xbc0aef6b	-0.008479933
104	0x3d06cbfe	0.032909386
105	0x3e174f86	0.1477643
106	0x3dff0ba6	0.12453394
107	0x3d229ae2	0.03969849
108	0x3d3c91c7	0.04603746
109	0x3c397e39	0.011321598
110	0xbbc9e1c4	-0.0061609466
111	0xbd2133d5	-0.03935607
112	0xbda19a63	-0.07890775
113	0xbe299702	-0.16561511
114	0xbde97c8c	-0.114007086
115	0xbdef40f1	-0.116823085
116	0xbd17e3ef	-0.03708261
117	0xbda6ad6d	-0.08138547
118	0xbda17a21	-0.07884622
119	0xbd744b67	-0.05964222
120	0x3d0643a7	0.032779362
121	0xbdbc6538	-0.091989934
122	0xbb49a175	-0.0030766402
123	0x3d9d8b9c	0.07692644
124	0x3e089335	0.13337405
125	0x3d028973	0.031869363
126	0x3b5accc1	0.0033386203
127	0x3d8555dd	0.06510518
128	0x3ce9a8ea	0.028522927
129	0x3da36357	0.07977932
130	0x3cb63298	0.022240922
131	0xbd076928	-0.03305927
132	0xbddd5c16	-0.108085796
133	0xbe1ba831	-0.15200879
134	0xbd880c7c	-0.06643006
135	0xbda982ab	-0.08276876
136	0x3c17ea96	0.009272238
137	0xbd5c2241	-0.053743605
138	0xbd9d13e3	-0.07669809
139	0xbd48a612	-0.048986502
140	0x3d0bec7d	0.03416108
141	0xbbe0ab25	-0.0068563395
142	0x3bbba4a3	0.0057264133
143	0x3d89aca6	0.06722383
144	0x3dd07d41	0.1018014
145	0x3d9082f5	0.07056228
146	0x3cc37568	0.023859695
147	0x3d0f722e	0.035021
148	0x3c004640	0.007829249
149	0x3d3bcab8	0.045847625
150	0x3d786842	0.060646303
151	0xbc82d793	-0.015971934
152	0xbd91d766	-0.07121162
153	0xbd3484bf	-0.04407191
154	0xbd76b746	-0.060233377
155	0xbd7209cc	-0.059091374
156	0xbd03c5ff	-0.032171246
157	0x3db08698	0.08619422
158	0x3ca731a7	0.020409418
159	0xbcbdaee6	-0.023154687
160	0x3cd16bca	0.025564093
161	0xbd765f2f	-0.060149368
162	0xbd0a957d	-0.03383397
163	0x3cfb1ec9	0.030654328
164	0x3d2b0d13	0.041760515
165	0x3d281fc3	0.041045915
166	0x3d3f3efa	0.04669092
167	0x3c51bea0	0.012801796
168	0xbd1db656	-0.038503967
169	0x3c756feb	0.014980297
170	0x3d36c053	0.04461701
171	0x3dbca25a	0.092106536
172	0xbd4e4e98	-0.05036792
173	0xbcce84f8	-0.025209889
174	0x3c278d9d	0.010226634
175	0xbd5b3c0b	-0.05352406
176	0x3d68d021	0.056839112
177	0x3d05e207	0.03268626
178	0x3caa13fb	0.02076148
179	0x3d56a8b7	0.052406993
180	0x3d932940	0.07185602
181	0x3c60d22e	0.013721986
182	0xbce02694	-0.027362145
183	0x3d4e8279	0.050417397
184	0xbb1abe12	-0.0023611826
185	0x3c015237	0.007893137
186	0xbbf287c8	-0.0074014403
187	0xbdb36e2d	-0.08761249
188	0xbb2e5ac2	-0.002660439
189	0x3ceee4f8	0.029161915
190	0x3d9e2516	0.07721917
191	0x3d528845	0.051399488
192	0xbe0bb0d3	-0.13641672
193	0xbddb2f2e	-0.10702358
194	0xbd758e9f	-0.059950467
195	0x3d0cc87b	0.03437088
196	0x3db6dd5f	0.08928942
197	0x3cb5fae0	0.022214353
198	0x3c8f0615	0.017458955
199	0xbc5d0073	-0.013488877
200	0x3d9d0604	0.07667163
201	0x3b9da0f5	0.0048104473
202	0xbd14a5bb	-0.036290865
203	0x3d45fd23	0.048337113
204	0x3d642856	0.05570253
205	0x3d5b0097	0.05346736
206	0xbd9acea0	-0.07558942
207	0xbd94a0e1	-0.07257248
208	0xbd50616c	-0.05087416
209	0x3e088fd9	0.13336124
210	0x3c947b13	0.018125093
211	0xbba5f529	-0.0050646258
212	0xbdf49f47	-0.11944442
213	0xbe0dec8f	-0.13859771
214	0xbd5fadac	-0.054608986
215	0xbd898975	-0.06715671
216	0x3d0fbcfe	0.035092346
217	0x3dd3852d	0.10328136
218	0x3dde5d31	0.108576186
219	0xbb4a79f9	-0.0030895455
220	0x3dbd80d8	0.092530906
221	0xbcc94f2a	-0.024573881
222	0xbd953456	-0.07285373
223	0xbc42996a	-0.011877397
224	0xbcbaf2cb	-0.02282085
225	0xbc9a5351	-0.018838556
226	0xbd94cad2	-0.072652474
227	0xbca8f3e7	-0.020624114
228	0x3d129020	0.03578198
229	0x3e13d8d9	0.1443819
230	0x3d3b0323	0.04565729
231	0x3cdafe65	0.026732633
232	0xbde7c768	-0.113173306
233	0xbe072c0e	-0.132004
234	0xbdd5d5b8	-0.10441154
235	0xbdb08919	-0.08619899
236	0x3d08d19a	0.033403017
237	0x3d80f1fd	0.062961556
238	0x3e100ae4	0.14066654
239	0x3d96243e	0.073311314
240	0x3cd473bf	0.025934098
241	0xbcaa7046	-0.02080549
242	0xbd714a79	-0.058908913
243	0x3bbbbeda	0.0057295384
244	0x3d37a6a5	0.04483666
245	0x3d8ffa43	0.070301555
246	0xbd9d9747	-0.076948695
247	0xbcd5c41d	-0.02609449
248	0x3d7061ad	0.0586869
249	0x3dd6b768	0.10484201
250	0x3dbd515b	0.09244033
251	0x3d278286	0.04089596
252	0xbd42720c	-0.047472045
253	0xbdb365a6	-0.08759622
254	0xbd3d7bb4	-0.04626055
255	0xbdba2d65	-0.090906896

layers.1.bias f4 [120]
0	0x3e0f453b	0.13991253
1	0xbbbfbd7b	-0.0058514453
2	0xbdd9faf8	-0.106435716
3	0x3d61cd85	0.05512764
4	0xbcb53478	-0.022119746
5	0x3c78cdc0	0.015185773
6	0x3cc0c5c4	0.023531802
7	0x3e3a38c1	0.18185712
8	0xbdf9b9a0	-0.12193608
9	0x3d6401cd	0.05566578
10	0xbd94ccd6	-0.07265632
11	0xbdcce188	-0.10003954
12	0xbc86b0cb	-0.016441723
13	0x3e484081	0.19555856
14	0x3df305b5	0.11866323
15	0xbd481750	-0.048850358
16	0xbbfd8d99	-0.007737827
17	0x3d18e629	0.037328873
18	0x3d3e89a7	0.046517994
19	0xbd374daa	-0.0447518
20	0x3e11f270	0.14252639
21	0x3dc8e98b	0.0981017
22	0x3d128f68	0.035781294
23	0xbd267b08	-0.040644675
24	0xbd94f53a	-0.07273336
25	0x3e110c6a	0.14164892
26	0xbd0cf4c2	-0.034413107
27	0xbd5a2c88	-0.053265125
28	0x3d19351d	0.03740417
29	0x3e34732d	0.17622061
30	0xbde2cff9	-0.11074824
31	0x3dcb3635	0.099224485
32	0xbdd3c9eb	-0.10341247
33	0xbdc39f31	-0.09551848
34	0xbd3f0a6d	-0.046640802
35	0xbdbe63e9	-0.092964
36	0xbdb6d08f	-0.08926498
37	0x3d302c45	0.04301097
38	0x3ccdfd4b	0.025145194
39	0xbd7a50ad	-0.061112095
40	0x3c871d8c	0.016493581
41	0x3cc0148e	0.023447301
42	0x3bc56ba7	0.006024796
43	0xbe163ce9	-0.14671673
44	0x3e629777	0.22128092
45	0x3de28803	0.110610984
46	0x3e0e38bc	0.1388883
47	0x3e195912	0.14975384
48	0xbccec678	-0.025241122
49	0xbdb1224b	-0.08649119
50	0x3d50bdc9	0.050962243
51	0xbb418a2b	-0.0029531817
52	0xbe01e533	-0.12685089
53	0xbd4a0407	-0.049320247
54	0xbe0d0424	-0.13771111
55	0xbdab1b40	-0.08354807
56	0xbda9c68c	-0.08289823
57	0xbd5fa856	-0.054603897
58	0xbe169557	-0.14705406
59	0x3dc1439d	0.09436724
60	0x3c1de752	0.009637671
61	0xbcc4ebc1	-0.024038197
62	0x3d2907ce	0.04126721
63	0x3d9d8530	0.07691419
64	0xbe060349	-0.1308719
65	0xba45aa7a	-0.00075403566
66	0xbd1c17c6	-0.03810861
67	0xbd8861e4	-0.06659296
68	0xbd0f7b31	-0.035029594
69	0x3d18aed8	0.03727612
70	0xbd52ac38	-0.05143377
71	0xbd31c963	-0.043404948
72	0xbb42bb47	-0.0029713677
73	0xbdd5d8be	-0.10441731
74	0x3ce859b7	0.028363092
75	0x3dc37765	0.09544257
76	0x3d25e520	0.040501714
77	0xbde36375	-0.11102954
78	0xbc32759f	-0.010892301
79	0xbd8c87ae	-0.06861816
80	0xbdcb5cca	-0.099298075
81	0x3dc58039	0.09643597
82	0x3d5c91c7	0.05384996
83	0xbda1e215	-0.0790445
84	0xbdacc89f	-0.08436703
85	0xbe0e6f2f	-0.139096
86	0x3cc38ae4	0.02386994
87	0xbc3d2ed5	-0.01154681
88	0x3d051f5a	0.032500602
89	0xbda9ef0d	-0.082975484
90	0xbc8b09a1	-0.016972365
91	0xbd454574	-0.04816194
92	0xbcefab44	-0.02925647
93	0xbd4b8626	-0.04968848
94	0xbd80fe38	-0.062984884
95	0x3da85795	0.0821983
96	0x3dd07f71	0.101805575
97	0x3db86f6f	0.09005629
98	0xbcbef424	-0.023309775
99	0xbd84275e	-0.06452821
100	0x3d4d795d	0.05016457
101	0x3d6fb4db	0.058522087
102	0x3da41b37	0.08013003
103	0xbd866f44	-0.06564191
104	0xbd8c4b0a	-0.0685025
105	0xbda8bf86	-0.08239655
106	0xbd85759a	-0.06516571
107	0xbe1c4c1f	-0.15263413
108	0x3da60555	0.08106486
109	0xbd3751a9	-0.04475561
110	0x3cdb9ba6	0.026807617
111	0xbd7fc7ef	-0.06244653
112	0xbcba7e80	-0.022765398
113	0x3d67a1cd	0.05655079
114	0x3da98aab	0.08278402
115	0xbdf1bf51	-0.11804069
116	0xbd1ebc8d	-0.038754035
117	0xbd01843c	-0.03162025
118	0xbc218918	-0.009859346
119	0xbdaae6c3	-0.083447956

layers.3.weight f4 [84, 120]
0	0xba4b2aa5	-0.000775019
1	0xbd889b81	-0.06670285
2	0x3d896875	0.06709377
3	0xbd0be4ab	-0.03415362
4	0x3d06b4b0	0.03288716
5	0xbc7bd162	-0.015369745
6	0x3d486668	0.048925787
7	0x3c592f96	0.013255974
8	0xbd4f6ac6	-0.050638936
9	0xbc00bef4	-0.007858027
10	0xbd05d863	-0.032677066
11	0xbdc77977	-0.097399645
12	0x3d5d7f69	0.054076586
13	0xbd9c30bf	-0.07626485
14	0x3d3a6697	0.045507994
15	0x3d0cea00	0.034402847
16	0x3d453f0c	0.04815583
17	0x3ca09d0c	0.019606136
18	0x3b416bb0	0.002951365
19	0xbd6f6f6a	-0.058455862
20	0xbc2d15b4	-0.010564256
21	0xbd909fd6	-0.07061736
22	0x3cb49947	0.022045745
23	0x3ceaf956	0.028683346
24	0x3d8ec063	0.069702886
25	0x3ba34cb3	0.0049835085
26	0xbdbd2c50	-0.092369676
27	0x3d9ead28	0.07747871
28	0xbd81d5c7	-0.06339603
29	0xbdad592f	-0.08464276
30	0x3c461761	0.012090535
31	0xbb4ca69c	-0.0031227237
32	0xbcea8b83	-0.028630977
33	0x3c978913	0.01849798
34	0xbd928b08	-0.07155424
35	0x3d7a65ce	0.061132245
36	0xbc7bcba7	-0.015368379
37	0xbd18a1da	-0.03726373
38	0xbc3f73bb	-0.011685307
39	0xbdc70864	-0.09718397
40	0xbda07a60	-0.07835841
41	0x3d9e4991	0.077288754
42	0xbda6d5cc	-0.08146247
43	0xbc4ee7eb	-0.012628536
44	0xbd9a2e78	-0.075283945
45	0x3d0c4360	0.03424394
46	0x3cf9f96e	0.030514445
47	0xbda8ac3c	-0.08235976
48	0xbd88de98	-0.066830814
49	0x3cccfabc	0.025021903
50	0xbdc1262a	-0.09431107
51	0xbd9c4da8	-0.07631999
52	0xbd96f3c6	-0.07370715
53	0xbd9ac78b	-0.07557591
54	0xbb360b57	-0.0027777755
55	0xbdc24665	-0.09486083
56	0xbd8fba31	-0.07017935
57	0x3d889656	0.06669299
58	0x3d13ef26	0.03611674
59	0xbcd3d837	-0.025859935
60	0xbd995154	-0.07486215
61	0xbdc0b380	-0.09409237
62	0x3d66e520	0.056370854
63	0xbd5acbf2	-0.053417154
64	0xbd89d972	-0.067309275
65	0x3c90234f	0.017594961
66	0xbd253248	-0.040331155
67	0x3d72b13a	0.059251048
68	0xbd8a3277	-0.06747907
69	0xbcefd434	-0.029275991
70	0xbd80c3bc	-0.06287333
71	0x3d4f0b11	0.050547663
72	0xbda90195	-0.08252255
73	0x3d1baa15	0.038004
74	0x3d0cabfd	0.03434371
75	0x3d9dc530	0.07703626
76	0x3d5f3f68	0.05450383
77	0x3d2df42f	0.0424692
78	0x3d36be12	0.04461486
79	0xbdb9f352	-0.09079613
80	0xbd96664a	-0.07343729
81	0x3d9bf02b	0.07614168
82	0x3d7ebce1	0.062191848
83	0x3b631816	0.0034651808
84	0xbdc2bd43	-0.09508755
85	0xbd8a7d08	-0.06762129
86	0xbdb84270	-0.08997047
87	0xbb881b65	-0.0041536563
88	0x3acb4c24	0.0015510363
89	0x3d285086	0.041092418
90	0x3a9f6621	0.0012161174
91	0x3d94c02b	0.07263216
92	0x3bcd087a	0.006257114
93	0x3d796fe5	0.060897727
94	0xbc225129	-0.009907045
95	0xbd155238	-0.036455363
96	0xbc2eb48b	-0.010663162
97	0x3cf98362	0.030458156
98	0xbd4a5d08	-0.049405128
99	0xbc9fd5e9	-0.01951118
100	0x3cff2d97	0.031149669
101	0xbc9ecb73	-0.019384122
102	0xbd0d0ee8	-0.034438044
103	0xbd05a2e0	-0.032626033
104	0xbcbd6c34	-0.023122884
105	0x3d7a3737	0.061087813
106	0xbd76fe43	-0.060301077
107	0x3c8f9c81	0.017530682
108	0xbd9874dc	-0.07444164
109	0xbd5cf1c1	-0.053941492
110	0xbcd405f8	-0.025881752
111	0x3bec3cc7	0.0072093937
112	0x3d1e77a8	0.03868833
113	0xbc0b4885	-0.008501177
114	0x3d80d885	0.06291298
115	0x3d0ff26f	0.035143312
116	0xbdbc1518	-0.09183711
117	0xbd65fd4a	-0.05614976
118	0xbc930a08	-0.01794912
119	0x3d87db61	0.0663364
120	0xbb214d20	-0.002461262
121	0x3c61b218	0.013775371
122	0x3d480a58	0.04883799
123	0xbc6b814a	-0.014374087
124	0xbd995339	-0.074865766
125	0x3d5307a3	0.051520955
126	0xbd838c38	-0.06423229
127	0xbd960dad	-0.07326827
128	0x3bcd5b19	0.006266963
129	0xbd5159d8	-0.051111072
130	0x3d27613b	0.04086421
131	0xbc62537e	-0.013813851
132	0x3cbe6419	0.02324109
133	0xbc63e119	-0.013908648
134	0x3be4c740	0.0069817603
135	0x3b29d714	0.002591555
136	0xbd999c2e	-0.07500492
137	0xbc7ca98b	-0.015421282
138	0xbdccf1a8	-0.1000703
139	0x3db72992	0.08943476
140	0x3cd17963	0.025570577
141	0x3c0054f6	0.007832756
142	0xbd2da6d7	-0.04239544
143	0xbd68c080	-0.056824207
144	0x3d21c475	0.039493997
145	0xbdac5c28	-0.08416015
146	0xbd06aa8b	-0.032877486
147	0xbc8f60fc	-0.0175023
148	0x3c3a4a7b	0.011370297
149	0x3dc669e4	0.09688166
150	0xbcc417e9	-0.023937183
151	0xbcbcfd03	-0.023069864
152	0xbde05fb5	-0.10955755
153	0xbdb06ba5	-0.086142816
154	0xbd69ac32	-0.057048984
155	0xbceb7db3	-0.028746461
156	0xbda27347	-0.07932144
157	0xbd86b7cb	-0.065780245
158	0x3bad66a3	0.0052917763
159	0xbd7c1083	-0.061539184
160	0x3d4234b1	0.04741353
161	0x3c9d4ceb	0.019201716
162	0xbd1c133f	-0.038104292
163	0x3dc2e28e	0.09515868
164	0xbd306008	-0.043060333
165	0xbd7923d2	-0.060825177
166	0xbd5a6c5b	-0.053325992
167	0xbd05bc2b	-0.032650154
168	0xbdff6150	-0.12469733
169	0x3cdf91f4	0.027291276
170	0x3d77a492	0.06045968
171	0x3d921d73	0.07134523
172	0xbccea6c2	-0.025226
173	0xbdaf9c96	-0.08574788
174	0xbd76667b	-0.060156327
175	0x3ce06158	0.027390167
176	0xbce57d13	-0.028013742
177	0xbd4c52d4	-0.04988368
178	0x3c7b23e0	0.0153283775
179	0x3c3c9443	0.011509958
180	0x3ba1d500	0.0049387217
181	0xbbb4add0	-0.005513884
182	0xbd8706fd	-0.0659313
183	0x3c657367	0.014004565
184	0xbd0d738b	-0.03453402
185	0xbcb2557b	-0.021769276
186	0xbd4a1672	-0.04933781
187	0x3d2a0f57	0.041518535
188	0x3d7906f9	0.060797665
189	0xbd0afde3	-0.03393353
190	0xbdafe45f	-0.0858848
191	0x3da65cfc	0.08123204
192	0x3dbc4a0f	0.09193813
193	0x3d18479f	0.03717768
194	0xbbaa4775	-0.0051965066
195	0xbd040814	-0.032234266
196	0xbd9df2fc	-0.07712361
197	0x3c9b366f	0.018946854
198	0xbdb5eedf	-0.08883452
199	0xbd44b152	-0.04802067
200	0x3c85b5a0	0.016321957
201	0x3d96498c	0.07338247
202	0xbe080b38	-0.1328553
203	0xbda503a9	-0.08057339
204	0xbdb85993	-0.0900146
205	0xbb096b9d	-0.0020968684
206	0xbd8d6b37	-0.06905215
207	0xbd92233c	-0.07135627
208	0x3ca5aa3e	0.02022278
209	0xbd0ca346	-0.034335397
210	0xbd986f64	-0.07443121
211	0xbdceb756	-0.10093562
212	0xbb02ac28	-0.001993904
213	0xbda5b6bb	-0.08091494
214	0xbdcceb01	-0.10005761
215	0xbd36ee5c	-0.04466091
216	0xbc9fd158	-0.019509003
217	0xbc385358	-0.011250339
218	0x3d7be443	0.061496984
219	0xbd3a3f6f	-0.04547065
220	0xbd61f9fb	-0.05517004
221	0xbdb5e18e	-0.08880912
222	0x3d842b61	0.06453586
223	0x3d2972ea	0.041369356
224	0xbc7d5cb7	-0.0154639995
225	0xbe0dc0b8	-0.13843048
226	0xbd593b20	-0.0530349
227	0x3d845bb5	0.06462804
228	0xbd5231f8	-0.051317185
229	0x3d88fcca	0.06688841
230	0xbda9373f	-0.082624905
231	0xbd90e2f8	-0.07074541
232	0xbcc17494	-0.02361516
233	0xbdd18267	-0.102299504
234	0x3c660bb2	0.014040874
235	0x3cb1e59c	0.021715932
236	0xbd746a37	-0.059671607
237	0x3d0ddba9	0.034633312
238	0xbcbbc82b	-0.022922596
239	0x3d3298a1	0.04360259
240	0xbd5828ec	-0.0527734
241	0x3c1826fc	0.009286638
242	0x3def19ff	0.1167488
243	0xbd36c790	-0.04462391
244	0x3d013254	0.031542137
245	0x3eb87f55	0.36034647
246	0x3b4497c2	0.0029997681
247	0x3e5b9a7c	0.2144565
248	0xbc91b37a	-0.017785776
249	0x3c2d94b4	0.010594536
250	0x3bc76712	0.006085285
251	0x3d8d087b	0.06886383
252	0xbd01f4ef	-0.031727728
253	0xbd97e775	-0.07417194
254	0x3e4074c0	0.18794537
255	0x3d3057aa	0.043052353

layers.3.bias f4 [84]
0	0xbda209a5	-0.07911996
1	0xbd8aeba1	-0.06783224
2	0xbd96aa76	-0.073567316
3	0xbd9d5598	-0.07682341
4	0xbce4a437	-0.027910335
5	0x3dabdb5f	0.08391451
6	0xbdad6364	-0.08466223
7	0x3d91b565	0.071146764
8	0x3d3d71e0	0.046251178
9	0xbd0e514f	-0.03474551
10	0xbccd3fcb	-0.025054833
11	0x3dc298c9	0.09501798
12	0x3e09600b	0.13415544
13	0x3dd6c7a9	0.10487301
14	0x3d4c055e	0.049809806
15	0xbd698564	-0.057011977
16	0x3d545ccd	0.051846314
17	0xba721454	-0.00092345965
18	0x3cd8489a	0.026401807
19	0xbd29fbe6	-0.041499995
20	0xbdb35e02	-0.08758165
21	0x3e1fe1c8	0.15613472
22	0x3d8a14cc	0.06742248
23	0xbc3bf647	-0.011472291
24	0x3e396f4b	0.18108861
25	0x3ccd7e54	0.025084652
26	0x3cbc3339	0.022973644
27	0xbd0100e4	-0.03149499
28	0x3dd9c9aa	0.106341675
29	0x3d9b69d0	0.075885415
30	0xbd86b451	-0.065773614
31	0x3de4f8d6	0.11180274
32	0xbd7403c6	-0.05957391
33	0x3d97f315	0.07419411
34	0x3d26f77d	0.040763367
35	0xbe007a71	-0.12546708
36	0x3cd5210a	0.02601673
37	0xbd70808c	-0.05871634
38	0x3dc3e4e1	0.095651396
39	0xbbb39de9	-0.005481471
40	0xbd579016	-0.052627645
41	0xbcec2f56	-0.028831165
42	0x3d3005c0	0.042974234
43	0x3dc27c56	0.094963714
44	0xbdef761c	-0.116924495
45	0x3dd416fa	0.10355945
46	0x3d805ac4	0.06267312
47	0xbd82c613	-0.06385436
48	0x3cfa9e99	0.030593203
49	0x3bdf4e82	0.006814779
50	0x3c3432af	0.010998412
51	0xbd85e127	-0.06537085
52	0xbd80dcf8	-0.062921464
53	0xbe120504	-0.14259726
54	0x3cbe13e8	0.023202851
55	0xbd90b6fc	-0.070661515
56	0xbdb11059	-0.08645696
57	0x3daeb07f	0.08529758
58	0x3e3bef88	0.18353093
59	0x3daf8575	0.08570377
60	0xbd7acba0	-0.06122935
61	0xbdcc6d71	-0.09981812
62	0xbe02f39c	-0.12788242
63	0xbd57190a	-0.052514113
64	0xbcce3fa5	-0.025176832
65	0xbd08577a	-0.03328655
66	0xbd0f5566	-0.03499355
67	0x3c6eccd3	0.014575201
68	0xbd91aabf	-0.07112645
69	0x3d90ce7f	0.07070636
70	0x3d19eee0	0.037581325
71	0xbd16a4e8	-0.03677836
72	0xbce4fb6f	-0.027951924
73	0x3d330c06	0.04371264
74	0xbe36bddf	-0.17845868
75	0xbd68d2d7	-0.056841698
76	0x3d22a4be	0.03970789
77	0x3d357ac7	0.044306543
78	0xbdf1085f	-0.11769175
79	0x3d01e746	0.0317147
80	0x3c96dc02	0.018415455
81	0x3cfdebb4	0.030996181
82	0x3d8003f7	0.06250756
83	0x3e4eb1ca	0.20185009

layers.5.weight f4 [4, 84]
0	0x3da91b5b	0.08257171
1	0xbddfb33b	-0.109228574
2	0xbd0cd1c9	-0.034379754
3	0xbd9770d6	-0.073945686
4	0x3d50219b	0.0508133
5	0xbe6518d3	-0.22372751
6	0x3d98ef87	0.07467561
7	0xbe343407	-0.17597972
8	0x3d41561b	0.047201257
9	0xbdaa3445	-0.08310751
10	0x3e3eb0fc	0.18622202
11	0x3c291f9f	0.01032248
12	0xbe33ad7d	-0.1754665
13	0xbe16cacb	-0.14725797
14	0xbd055dd6	-0.032560192
15	0xbcae7dc2	-0.0213002
16	0x3e2d8257	0.16944252
17	0x3e1e4235	0.15454943
18	0x3e22c11c	0.15893978
19	0x3c501c7f	0.0127021065
20	0xbdcf8ab1	-0.10133875
21	0xbe51ce92	-0.20488957
22	0x3d77ee19	0.060529802
23	0xbc12e994	-0.008966822
24	0xbd99d718	-0.07511729
25	0x3d7e047c	0.062015995
26	0xbe79f7c2	-0.24410918
27	0x3d88e0c4	0.06683496
28	0xbe3b5642	-0.18294623
29	0xbe733a7e	-0.23752782
30	0x3db337ef	0.08750903
31	0xbe2ec7bc	-0.1706838
32	0xbe377055	-0.17913945
33	0xbd4fbc10	-0.05071646
34	0x3d439b83	0.04775573
35	0x3dee5cf1	0.11638821
36	0x3d60e77c	0.05490826
37	0x3d1968c1	0.037453417
38	0xbe143afa	-0.14475623
39	0xbcec78f0	-0.028866261
40	0x3b7dec84	0.003874571
41	0xbe444348	-0.19166291
42	0xbc5e4463	-0.013566109
43	0xbe5a4dbc	-0.21318716
44	0x3df58700	0.1198864
45	0x3dbf6fcb	0.09347495
46	0xbe50ef37	-0.20403753
47	0xbdfa7b33	-0.1223053
48	0x3d8a69ba	0.06758447
49	0xbdc01352	-0.09378685
50	0xbe649b08	-0.22324765
51	0xbe11bfa9	-0.14233269
52	0x3cbc28aa	0.022968609
53	0xbd7696e4	-0.060202494
54	0x3d2bddba	0.0419595
55	0x3d9270b2	0.07150401
56	0x3d914868	0.070938885
57	0x3e1f4d14	0.15556747
58	0x3d2ddeca	0.042448796
59	0x3d58948b	0.052876037
60	0xbe01d9ba	-0.12680712
61	0xbe7c1391	-0.24616839
62	0xbe274b10	-0.16337228
63	0x3bddb9b7	0.0067665237
64	0x3e0147bf	0.12625025
65	0x3e343d4e	0.17601511
66	0x3df89dfc	0.12139508
67	0x3dcbd67f	0.09953021
68	0x3e216b93	0.15763693
69	0xbe1991d0	-0.1499703
70	0xbc9076c5	-0.017634759
71	0x3e7682c1	0.24073316
72	0x3ceeb726	0.029140066
73	0x3e2a512d	0.16632529
74	0x3ca4644e	0.02006736
75	0x3d004e32	0.031324573
76	0x3d7aedf3	0.061262082
77	0xbe0730bf	-0.13202189
78	0xbe12a39a	-0.14320222
79	0x3e3c6032	0.1839607
80	0xbc109c68	-0.008826353
81	0x3e808d0c	0.2510761
82	0x3d74fe48	0.059812814
83	0xbe87111f	-0.2638025
84	0xbda79446	-0.08182578
85	0x3d4b1b9b	0.049586874
86	0xbe0f1ec0	-0.13976574
87	0xbdabbf0f	-0.08386051
88	0x3d92fff1	0.07177723
89	0x3d34e86f	0.04416698
90	0x3d12661d	0.035741914
91	0x3e2050d4	0.15655833
92	0x3d28e312	0.041232176
93	0xbe1e2127	-0.15442334
94	0xbe7bd98a	-0.24594703
95	0xbe2e65f2	-0.17031077
96	0xbe13bd37	-0.14427648
97	0xbe5cc50c	-0.21559542
98	0x3bfbaf4d	0.0076808096
99	0xbde6a84a	-0.11262567
100	0xbd219bf7	-0.03945538
101	0x3e1ea75a	0.15493527
102	0xbe0b1a12	-0.13584164
103	0x3e02d27d	0.12775607
104	0xbe3a9cf4	-0.18223935
105	0x3de6eb49	0.11275346
106	0x3d4a6168	0.0494093
107	0x3d94bc19	0.07262439
108	0xbdd73250	-0.10507643
109	0x3d3f16c5	0.046652574
110	0x3d2f4a01	0.042795185
111	0x3e118b19	0.14213218
112	0xbdb0e9ad	-0.0863832
113	0x3db7549b	0.08951684
114	0x3d0e0b3d	0.034678686
115	0xbe46d948	-0.19418824
116	0xbe4092e7	-0.18806039
117	0x3e6468c5	0.22305591
118	0xbe0ef826	-0.13961849
119	0x3dbc29a6	0.09187631
120	0x3dbe7d68	0.09301263
121	0x3c8eb165	0.017418573
122	0xbe28af61	-0.16473152
123	0x3cb9608a	0.022629041
124	0xba6e6777	-0.0009094397
125	0xbd916f27	-0.07101279
126	0xbd93b572	-0.07212342
127	0x3da2e57a	0.079539254
128	0xbe41bb6a	-0.18919149
129	0xbc985614	-0.018595733
130	0x3a8a019d	0.0010529045
131	0x3d96197c	0.073290795
132	0x3dc823d3	0.09772458
133	0x3da02336	0.07819216
134	0x3e36031c	0.17774624
135	0xbc49bb10	-0.012312666
136	0xbd1d53d1	-0.03841001
137	0x3cec2783	0.028827434
138	0xbe300e9d	-0.17193075
139	0xbd772964	-0.060342208
140	0x3dafc1c2	0.08581878
141	0xbe3bbe2f	-0.18334268
142	0xbe27e332	-0.16395262
143	0xbe87bd26	-0.26511496
144	0x3e3375b2	0.17525366
145	0x3e3b9e9c	0.18322223
146	0x3e020f47	0.1270114
147	0xbdb263ca	-0.087104395
148	0x3e17c5be	0.14821526
149	0xbd13569c	-0.03597127
150	0x3dd8596e	0.10563932
151	0xbe475515	-0.1946605
152	0x3de5b882	0.11216833
153	0xbe6b871f	-0.23000763
154	0x3daccead	0.08437858
155	0xbe63aea8	-0.22234595
156	0x3ccecbf0	0.02524373
157	0xbe31d2c9	-0.17365564
158	0x3d47a8f4	0.04874511
159	0xbe1cc0b1	-0.15307881
160	0x3e2b574e	0.16732523
161	0xbdd96cc1	-0.10616446
162	0xbe08cacb	-0.1335861
163	0xbe7576c4	-0.23971087
164	0xbd599acc	-0.05312614
165	0xbeae8d9a	-0.34092408
166	0x3da1e4c9	0.079049654
167	0x3d9721e3	0.0737951
168	0x3dac00a4	0.0839856
169	0x3da2fa2d	0.079578735
170	0xbe6eabc6	-0.23307714
171	0x3d4556af	0.04817837
172	0xbe70fe39	-0.23534478
173	0x3d81c57f	0.063364975
174	0x3d9860d6	0.07440345
175	0x3df6f0f6	0.120576784
176	0x3ca0a2a4	0.019608803
177	0xbe149350	-0.1450932
178	0xbdd90ec9	-0.10598523
179	0x3e3cf7a6	0.18453845
180	0x3e523fa2	0.20532086
181	0xbd26a0ef	-0.040680822
182	0x3d53fb28	0.051753193
183	0x3c93fe63	0.018065637
184	0xbd4f6248	-0.050630838
185	0xbdecee4a	-0.115688875
186	0xbe1201a7	-0.14258443
187	0xbe7d9fbd	-0.24767967
188	0xbe1cc53f	-0.15309618
189	0x3e2bf6d3	0.16793375
190	0xbd8a5065	-0.06753615
191	0x3daf1ca0	0.08550382
192	0x3e1dc38d	0.15406628
193	0x3ce82a04	0.028340347
194	0xbe15c135	-0.14624484
195	0xbe34a487	-0.17640887
196	0x3dff7fec	0.12475571
197	0x3df7c87a	0.12098785
198	0xbe2b6986	-0.16739473
199	0x3d7f527e	0.06233453
200	0xbdc702ee	-0.09717356
201	0xbdaf7a8c	-0.08568296
202	0xbe1d84ed	-0.15382738
203	0xbe1ef1b0	-0.15521884
204	0x3ccc7ed2	0.024962816
205	0x3d8159ae	0.06315933
206	0x3e366589	0.1781217
207	0xbd12d167	-0.035844233
208	0xbde1a93d	-0.11018608
209	0xbb9d12ce	-0.0047935015
210	0x3dc0ce9e	0.09414409
211	0x3e0c2fd4	0.1369012
212	0xbe69badc	-0.22825187
213	0x3e0daccc	0.13835448
214	0xbdb1b93b	-0.08677908
215	0xbde9c63a	-0.11414762
216	0x3dbd32c1	0.09238196
217	0xbb8729b9	-0.004124847
218	0x3df4c291	0.11951173
219	0xbe3148fa	-0.17312995
220	0xbcba4401	-0.022737505
221	0xbe2e9446	-0.1704875
222	0xbde612d9	-0.11234064
223	0x3d0a39c6	0.033746503
224	0xbd9bb4f3	-0.07602873
225	0xbe1f135f	-0.15534733
226	0xbe1621c1	-0.14661314
227	0x3e0803f5	0.1328276
228	0xbd8263a6	-0.06366663
229	0xbdc92bbc	-0.09822795
230	0xbe0414dc	-0.12898582
231	0xbc093bf9	-0.008376115
232	0xbdd9ec7b	-0.10640808
233	0xbe2d2b76	-0.1691111
234	0xbe5f3881	-0.21798898
235	0xbe564d9a	-0.2092804
236	0xbe10b54a	-0.14131656
237	0x3d7d7932	0.06188316
238	0x3c04798e	0.0080856215
239	0xbd8b4e85	-0.06802086
240	0xba314101	-0.00067617005
241	0xbd7fc34c	-0.06244211
242	0xbe8d785c	-0.2763089
243	0xbdfe6b1b	-0.124227725
244	0xbe47643d	-0.19471832
245	0xbdb61d11	-0.08892263
246	0xbe06990d	-0.13144322
247	0xbe4cfe88	-0.20018971
248	0x3ac6d32f	0.0015169139
249	0x3c70d483	0.014699104
250	0x3e0c0a3b	0.13675778
251	0x3e4531b8	0.19257247
252	0xbd9d2ffa	-0.076751664
253	0xbd28011f	-0.041016694
254	0x3d69700a	0.056991614
255	0x3de32511	0.11091054

layers.5.bias f4 [4]
0	0xbded1e59	-0.11578054
1	0xbdd8e1bf	-0.10589933
2	0x3e168f69	0.14703144
3	0xbd4b886f	-0.04969066
