src/rm_opencv_aim/rm_detector/model/mlp.onnx (onnx, 312347 bytes, 6 tensors)

layers.1.weight f4 [120, 560]
000000 4e 16 a8 3d 91 67 1d 3c 6f a3 8c 3d 0b ed 48 3d
       0.08207379 0.009607212 0.0686711 0.049054187
000010 8a 3f f4 bc de ff 9c bd 24 66 4f bd d9 66 da bb
       -0.029815454 -0.0766599 -0.05063452 -0.0066650924
000020 7e 64 f2 b7 15 29 ab 3d 78 94 a7 3d e3 90 3e 3d
       -2.8895443e-05 0.08357445 0.08182615 0.046524893
000030 eb 2c 74 3d 36 3d 98 3d 29 14 11 3d 48 19 92 bb
       0.05961315 0.0743355 0.035419617 -0.00445858
000040 61 1f 48 3c 14 05 53 bc 1d dc f6 3c da b4 3b 3d
       0.012214513 -0.012879629 0.030134255 0.04582677
000050 9e 56 44 3c ff eb 07 bd 4d 5e 05 3e 2d 32 fc 3d
       0.011983542 -0.033184048 0.13024254 0.12314258
000060 f2 42 34 3c 92 40 e6 bc 84 a5 3a bd 10 7c 91 bd
       0.011002289 -0.028106961 -0.045568004 -0.07103741
000070 c8 74 e9 bc 06 76 13 3d d6 42 ab 3d 02 56 3b 3d
       -0.028498068 0.036001228 0.08362357 0.04573632
000080 a5 c7 8f 3c 21 ba 52 3d 21 c2 e9 3c f8 cf 99 3d
       0.017551253 0.051447038 0.02853495 0.0751037
000090 30 5e 17 3c 8c a0 19 bd 57 98 e1 bc d7 e2 fd bc
       0.009238765 -0.037506625 -0.027538462 -0.030991955
0000a0 c7 0f 89 bd 78 b0 d9 bb a6 77 09 3d a4 8f de 3d
       -0.066924624 -0.006643351 0.03356137 0.10867241
0000b0 32 1e 88 bb ed 50 ca bc 3f 1b a3 bd 79 d2 f3 bc
       -0.00415399 -0.024696792 -0.07964181 -0.029763447
0000c0 62 6e 35 3c f9 52 28 3d 8a f2 a5 3c c5 19 18 bc
       0.011073681 0.041094754 0.020257253 -0.009283488
0000d0 4d f5 ad 3c ca 98 28 3d 52 7e 52 bc 63 14 d3 bb
       0.021235133 0.041161336 -0.0128475 -0.0064416393
0000e0 22 4b 56 3d b9 30 e3 3c ce e4 a9 3c 6d 01 9c bd
       0.052317746 0.027733194 0.020738985 -0.076174594
0000f0 76 a8 1c 3d 76 48 cc 3c 69 92 19 3d f9 33 7c 3d
       0.038246594 0.024936896 0.037493143 0.061573002
000100 e9 f0 1d 3d e4 14 1c bd df 41 3c bc ed 5f a6 3b
       0.038559828 -0.03810586 -0.011490314 0.005077353
000110 a0 2f 98 3d 35 3e 26 3d 25 c2 e7 3d 17 eb 82 3d
       0.07430959 0.04058667 0.11316327 0.06392496
000120 dd 3d 1c 3d 09 43 dd 3b 0d 76 2a bc 50 34 cb 3c
       0.038144935 0.006752376 -0.010404122 0.024805218
000130 86 4d a2 3d e2 bb 86 3c 0c 96 3c 3d 32 82 ea bc
       0.07924943 0.016447011 0.046041533 -0.028626535
000140 10 96 dc 3c 7d 2e 28 3d ef 5c 0a 3d 33 75 77 3d
       0.026927024 0.04105996 0.033780035 0.060414504
000150 07 c8 32 3d 26 7f 86 3d 7f 27 61 3d 1b 2e 9f 3d
       0.043647792 0.065672204 0.054969307 0.07772466
000160 a9 24 36 3d a0 56 db 3d 95 6a d7 3d 34 2b 20 3c
       0.044468556 0.10709882 0.10518376 0.009775925
000170 db 9b 36 3c 79 7b c7 bc 7e d2 89 3b 07 c9 9c bc
       0.011145557 -0.024350869 0.004206001 -0.019138826
000180 14 4e 2c 3d 49 4c ac bc 0c 5a e3 bc 2c e8 3a 3d
       0.04206665 -0.02103247 -0.027752899 0.045631573
000190 1d ff 03 3d c9 21 a7 3c 4f 75 e1 3b 2a 93 bb bc
       0.032225717 0.020401852 0.0068804394 -0.022897322
0001a0 af 42 01 3d 85 82 85 3d 8d 7e 84 3d de cf 3b 3d
       0.031557735 0.06519035 0.0646945 0.045852534
0001b0 b1 97 51 3d 93 b9 a8 3d 34 87 9a 3d 63 f0 28 bb
       0.051170055 0.082385205 0.07545319 -0.0025778047
0001c0 9c d8 04 be 60 c9 f2 bc eb 34 90 bd 10 c2 5e bd
       -0.12973255 -0.029637039 -0.07041343 -0.05438429
0001d0 6e e3 c3 3c ca c2 06 bd bc 6a 1d 3d 35 ea 0f bd
       0.023912158 -0.03290061 0.038431868 -0.035135467
0001e0 e9 ad 89 3d ed d8 97 bd 0c ec a6 bd b8 23 08 bd
       0.06722624 -0.07414422 -0.08150491 -0.03323719
0001f0 53 65 92 3c cd 11 9a 3d 55 c9 0c 3b a4 dd 13 3d
       0.01787058 0.075229265 0.0021482308 0.036100045
000200 f3 06 b0 3d 6b 70 8e 3d e2 ec 22 3d 2b 8e b9 3c
       0.085950755 0.06955036 0.03977669 0.022650799
000210 ae cd b9 bd d0 3c 73 bd 3c f9 3f bd e0 ea da bc
       -0.090724334 -0.059384167 -0.046868548 -0.026723325
000220 e6 d2 af 3d c8 78 9f bc 92 e6 21 bc d9 df 26 bd
       0.085851476 -0.019466773 -0.009881632 -0.04074082
000230 35 e6 1d 3d 1d d4 57 3c fa 93 c1 bd 28 0e 9a bd
       0.03854962 0.01317313 -0.094520524 -0.07522231
000240 ac 88 eb 3b 5c d0 88 3d cf 9f e0 3c 5c 67 ae 3d
       0.0071879234 0.066803664 0.027419953 0.08515808
000250 fa 67 a4 3d 07 fa af 3d be ba 00 bc 08 b0 46 bc
       0.080276445 0.08592611 -0.007857023 -0.01212693
000260 95 4d 00 bd 4c 1c bc bd e3 23 26 bd 79 10 bd 3b
       -0.031323988 -0.09185085 -0.040561568 0.005769786
000270 b4 f7 33 bb 39 10 eb 3b ef 13 99 bc cf 2b 06 bd
       -0.0027460875 0.0071735648 -0.018686263 -0.032756623
000280 31 bf c4 3b b3 7b 94 bc c0 44 7f bd 49 e2 24 bd
       0.006004237 -0.01812539 -0.062321424 -0.040254865
000290 ce b3 55 3d b2 64 06 3e cf 75 08 3e 04 55 29 3e
       0.05217343 0.1312435 0.1332619 0.16536337
0002a0 1f ba 32 3e 3b 18 8c 3d 54 82 33 bc 2c b3 66 bd
       0.17453812 0.06840559 -0.010956366 -0.056323215
0002b0 6d cc 9a bd 97 4d d7 bd e8 5e a6 bd 1d b9 2d 3c
       -0.075585224 -0.10512846 -0.08123571 0.0106032165
0002c0 01 bc b1 3d 94 58 2c 3d 94 90 74 bc 4b e6 5b bd
       0.08678437 0.042076662 -0.014927048 -0.05368642
0002d0 b8 5b 3e 3d a4 0a df 3b 36 e5 95 bd b4 aa b6 bc
       0.04647419 0.0068066884 -0.07319109 -0.022298194
0002e0 87 ed 83 3d f7 5c ed 3d f6 bb ae 3d d0 81 12 3e
       0.06441789 0.11589997 0.085319445 0.14307332
0002f0 d5 f5 c3 3d 12 ce b4 3d 67 64 35 3c a7 49 80 bc
       0.09568373 0.08828367 0.011071301 -0.01566012
000300 ad a4 01 bd 5d 76 9b bd 19 9f 95 bd aa a4 22 3c
       -0.031651188 -0.075909354 -0.07305736 0.009926954
000310 c3 45 73 3d 3b cc 2a 3d 40 7b 9c 3d bd b4 12 bc
       0.0593927 0.041698676 0.076406956 -0.008954224
000320 e8 63 b1 3d f1 6f 10 3c 59 17 21 bd bb 35 b3 bd
       0.08661634 0.008815751 -0.039328907 -0.08750483
000330 77 59 2c bc 6e 7a 4f bc 2e a9 1d bd 9a fd 36 3d
       -0.010519377 -0.012663467 -0.03849142 0.044675447
000340 5b d7 0a 3d 27 3a 28 3c 78 0f 2c bd c7 f1 5d 3d
       0.033896785 0.010267771 -0.04200694 0.054185655
000350 7a 42 53 bc 3a 70 1f be 81 be 01 be 9f 8b c0 bc
       -0.012894267 -0.15570155 -0.12670328 -0.023504077
000360 9d 9c fd 3c f4 ee 5d 3d d0 0e a1 3d d6 bd 17 bb
       0.030958468 0.05418296 0.078641534 -0.0023153923
000370 5d f0 35 3d a9 5f da 3c c9 bb e1 bd 13 e7 1c be
       0.04441868 0.026656942 -0.11022145 -0.15322523
000380 88 ef a0 bd 8a ca a2 bd 40 b7 68 be bc 14 30 bd
       -0.07858187 -0.079487875 -0.22726154 -0.042988524
000390 cb f2 05 bd 73 c4 94 bc f0 3a bd 3b 7b 85 fc 3b
       -0.03270225 -0.01816008 0.005774848 0.007706342
0003a0 a1 85 e3 bc 39 d8 b4 bd 56 aa 8f bd c8 eb 1f 3d
       -0.02777368 -0.08830304 -0.07014911 0.039043218
0003b0 a3 64 ef 3d 54 cf 4b 3d 6e 10 89 3d ce e8 33 3d
       0.11689117 0.04975827 0.06692587 0.04392319
0003c0 21 e8 c9 3d 15 09 66 3c 89 e9 68 bd 34 e3 22 be
       0.09858728 0.014040251 -0.05686334 -0.15906984
0003d0 a1 7b 0b be e2 d2 e9 bd b4 5e 28 be 1a 5d 96 3c
       -0.1362138 -0.11417176 -0.16442376 0.018354941
0003e0 88 f0 24 3c cf 24 c8 3c 4b 64 51 bd bb 32 87 bd
       0.010067113 0.024431614 -0.051121037 -0.06601473
0003f0 cf 51 46 bd 14 bd b7 bd 58 26 b6 bd 1e ce eb ba
       -0.048417863 -0.08971611 -0.08894032 -0.0017990505

layers.1.bias f4 [120]
000000 ae 3c d7 bb a5 1d 9b bd ac 6d 54 3d f4 b6 94 3d
       -0.006568513 -0.075740136 0.051862404 0.07261458
000010 4e dc 06 be a4 7a b7 bc fa e3 99 3d d1 a5 3a bd
       -0.13169977 -0.022397347 0.07514186 -0.04556829
000020 82 e2 29 3e 14 b0 2c 3e 96 de 93 bd c0 f7 68 be
       0.16590312 0.16864043 -0.07220189 -0.22750759
000030 5d 46 71 3e 4a 66 8b bd 82 79 56 3a e7 07 12 3d
       0.23561998 -0.068066195 0.0008181558 0.035652068
000040 2c c3 c3 bd be 21 73 3d 87 d1 78 3d 27 ef bd 3d
       -0.095587105 0.05935835 0.060746696 0.0927413
000050 05 e9 0d be fc 70 4e be fe 95 82 3e 5f 51 16 3d
       -0.13858421 -0.20160288 0.2550506 0.036698695
000060 86 eb 56 bd 7a 1c 13 3e 5a cf eb 3d 28 a2 87 3d
       -0.052470706 0.14366332 0.115141585 0.06622726
000070 43 64 8d bb e9 37 0d 3e 2f ae 85 bd 74 02 9d bd
       -0.0043149306 0.1379086 -0.065273635 -0.076664835
000080 b5 26 7c bd 1e 75 43 3e b7 1e 06 3e 46 69 5a be
       -0.06156035 0.19087645 0.13097654 -0.21329221
000090 e2 59 c0 3b ff 4a cc bd 35 c2 49 3e d8 17 11 3e
       0.00587009 -0.09975242 0.1970299 0.14169252
0000a0 4b 7d 43 bc 8e e6 19 3e 06 68 b3 bd 76 4c 3e be
       -0.011931728 0.15029356 -0.08760075 -0.18583855
0000b0 df db bd bd f0 66 ba 3d 2e 2e b2 3d 1e 3d 49 3e
       -0.09270453 0.09101665 0.08700214 0.1965222
0000c0 26 72 a6 3d ba 03 83 3d c4 43 3c 39 8b cf a9 3e
       0.08127241 0.06397195 0.00017954322 0.33166155
0000d0 00 ca 0a bd e7 7d b9 bd b1 7f d1 3c 4a 3b f7 bd
       -0.03388405 -0.09057217 0.025573583 -0.12071855
0000e0 e4 55 0f 3e 44 27 c0 3d 35 06 53 3e 75 fe bc 3c
       0.13997608 0.09382489 0.20607837 0.023070553
0000f0 18 d5 a5 bd 36 b3 8c bc 60 da 23 3c 6e 8d 1e 3d
       -0.08097285 -0.017175298 0.010000795 0.038709097
000100 22 12 93 bc 0a 37 83 3d 1b 08 03 be 7e db 50 be
       -0.017952982 0.06406982 -0.1279606 -0.2039623
000110 3e 8d 02 be 00 5d 38 3e f2 b7 5d 3e 63 09 bb bd
       -0.12749192 0.18004227 0.21652201 -0.0913265
000120 b3 2e 20 be 37 ca 4d 3e f7 fb 8e 3e 12 5b 2e 3e
       -0.15642814 0.2009667 0.2792661 0.17026928
000130 8e e6 da bd 03 28 23 bd f2 09 e8 3c f1 33 90 3d
       -0.10688506 -0.03983308 0.028325055 0.07041157
000140 37 10 bb 3e 17 c1 56 be f2 1f 8c be c9 1d 4f 3d
       0.36535808 -0.20972095 -0.27368122 0.050565515
000150 0a 01 55 bb 55 14 3a bd 22 00 86 bd 88 70 20 3d
       -0.003250184 -0.045429546 -0.06542994 0.03916982
000160 05 e3 53 3e 01 ac 7d 3d a7 dc 4a bb 0b 5f 21 3e
       0.2069207 0.061931614 -0.0030954273 0.15758912
000170 32 9e 99 3d 1b f2 1d be a8 7c 06 3c 65 9e d4 bd
       0.075008765 -0.15424387 0.008208431 -0.10381774
000180 5a 76 d1 3d 01 19 78 bd 2f 26 d2 3d 26 dc ae 3d
       0.10227652 -0.06057072 0.10261189 0.08538084
000190 33 55 f4 3b 30 10 a8 bd 24 7a 03 3e 7a 18 99 3d
       0.0074564456 -0.082062125 0.12839562 0.07475372
0001a0 0c f3 3a 3e ec 05 26 bd a0 fd 73 3e c9 dd 34 3d
       0.18256778 -0.04053299 0.23827219 0.044156823
0001b0 f3 cd 5d 3d ce dc 0e be 94 68 28 be c8 e4 88 be
       0.054151487 -0.13951418 -0.16446143 -0.26737046
0001c0 4c f5 9f bc 91 35 81 be 5d 36 e3 bd 19 cb 02 be
       -0.019526146 -0.2523618 -0.11094353 -0.12772788
0001d0 97 02 29 ba 26 b4 92 3e c3 d2 4e 3e 24 e5 2d be
       -0.00064472243 0.28653067 0.20197587 -0.16981941

layers.3.weight f4 [84, 120]
000000 4a 7d b4 3d df a0 eb 3d 6f 1f 0f 3e ff 4b 47 3c
       0.088129595 0.11505293 0.13976835 0.012164115
000010 73 ef a5 3d 56 a7 eb 3d a3 e5 85 3b 8b 5c 37 3d
       0.08102312 0.11506526 0.0040862127 0.04476599
000020 09 15 7f be d2 b6 07 3e a5 dc c0 3d a4 5c d1 bb
       -0.24910368 0.13253334 0.094170846 -0.0063892175
000030 7e eb 2d bd 4a 93 79 3d 26 c0 ad 3d f3 d4 12 3c
       -0.04246091 0.06093148 0.08483915 0.008961904
000040 0b e6 3e bd b0 e3 ea bc a8 d1 12 3d f8 c1 09 3d
       -0.046606105 -0.028673023 0.035844475 0.03363225
000050 7f 08 d8 3d bc bb 0e 3e 53 e5 28 3b b5 57 85 3c
       0.105484955 0.13938802 0.0025771454 0.016277174
000060 d2 3e 34 3d 5b 3a 82 3d b0 93 03 3e 3b bd 86 3d
       0.044005223 0.06358787 0.12849307 0.065790616
000070 2a 34 50 3e d0 14 da 3c ef 5f 98 3d 40 e0 fe 3d
       0.20332399 0.026621252 0.07440173 0.12445116
000080 09 97 ea bc 78 c1 08 bd 0b 12 91 3d 89 1a 23 3e
       -0.028636472 -0.03338763 0.070835195 0.15928091
000090 18 46 74 bd 59 68 55 3e 13 36 7e 3d 39 f1 b8 3d
       -0.05963716 0.20840587 0.062063288 0.090303846
0000a0 ad 30 ab 3d 5b 1a 79 3d 74 75 68 3e cb ba 4a 3e
       0.083588935 0.06081615 0.22701055 0.19797818
0000b0 37 7d 00 3f ad 4e b4 3d 14 a6 a9 3c 7a 18 3b 3c
       0.5019106 0.08804069 0.020709075 0.01141941
0000c0 23 b8 19 3e c9 ec 55 3e 11 88 ce 3d d0 c8 29 be
       0.15011649 0.20891108 0.10084546 -0.1658051
0000d0 2f 6b 7e 3c 1e cb 22 3d e8 42 75 3d 22 db 38 3c
       0.015528484 0.03974449 0.05987826 0.011282714
0000e0 9c 8d 4a bd 7e a8 5b bc 6b 9a ac 3d 66 64 a9 bc
       -0.049451455 -0.013406871 0.084278904 -0.020677757
0000f0 8f 11 cd 3d f7 e8 99 3d 83 18 ad 3d 35 f9 a1 3e
       0.10013115 0.07515138 0.08451941 0.31635442
000100 30 ad cc 3d 05 5d 23 bd 26 b3 38 3e 29 45 59 bd
       0.099939704 -0.039883632 0.1803709 -0.053044472
000110 c3 f8 20 3e d6 73 b0 3d 91 15 5e bd 8c fb 9c 3d
       0.15719895 0.08615844 -0.054219786 0.07665166
000120 a5 1e 57 3d e2 ef 65 3d 54 2a da bc 90 43 38 be
       0.05251946 0.056136973 -0.026631512 -0.17994523
000130 48 6e d4 3d 68 80 21 3d 5f ae 3b 3d 2a 8f f6 3d
       0.10372597 0.0394291 0.04582059 0.12039025
000140 cc 54 0e be f2 eb 61 3e 26 ae 9a 3d f3 2e b8 3d
       -0.13899535 0.22062662 0.075527474 0.0899333
000150 6f 19 ce 3d bf 86 82 3a bc 5a 23 3e 2a c7 f6 3d
       0.10063445 0.000995837 0.15952581 0.12049706
000160 f4 39 72 3d fc 3d b3 bb 30 95 96 3d 2f a8 22 bd
       0.0591373 -0.0054700356 0.07352674 -0.039711174
000170 73 1d ab 3d 95 e8 47 3e 4a 72 30 bd 08 f1 71 3d
       0.08355226 0.19522317 -0.043077745 0.059067756
000180 24 59 b6 3d c1 20 91 bc dc d1 81 3d 00 1c cb 3d
       0.08903721 -0.017715814 0.063388556 0.0991745
000190 d3 3d a1 bc 65 6a 73 3e c3 10 4b bc 40 45 e9 3d
       -0.0196828 0.23771055 -0.012394133 0.113901615
0001a0 cb 8d 84 bd 3e 91 0d 38 b1 7c 77 3b 68 79 6c 3e
       -0.06472357 3.3752287e-05 0.003776353 0.23093188
0001b0 ba fa 80 bd 15 c2 41 3e a6 52 11 3e 94 da 8a 3e
       -0.06297822 0.18921693 0.14191684 0.27119887
0001c0 37 af 09 3e 95 76 ee 3d 34 bb 1c 3e 93 7d 9d 3e
       0.13445745 0.116437115 0.15305787 0.30759868
0001d0 43 f2 bc 3d c7 49 28 bd 3a 01 34 bd 75 6b 16 3e
       0.09225895 -0.041085985 -0.043946482 0.14689429
0001e0 89 07 31 bc d0 e1 b9 3c 17 39 ae 3d 73 f2 99 3d
       -0.010805019 0.022690684 0.08506983 0.07516947
0001f0 7e 50 a9 3d 26 38 c7 bd 84 ac a4 3d 02 38 13 3e
       0.08267306 -0.09727506 0.08040717 0.14376834
000200 39 c0 c3 3d 6c df cd 3d aa 31 9d 3d 3c 25 47 3c
       0.09558148 0.1005238 0.07675488 0.012154873
000210 94 86 32 3d 9d 39 2b bd 41 9c 89 3d 3b f7 13 3e
       0.043585375 -0.04180299 0.06719256 0.1444978
000220 58 4e 49 3e 72 f5 b7 3d 0d 5d 2f 3d a5 0a a2 3d
       0.19658792 0.08982362 0.04281335 0.079121865
000230 ec eb e1 3d 07 4e a8 bd 22 f1 20 3e 0b 2b ad 3d
       0.11031327 -0.082180075 0.15716985 0.084554754
000240 8d e5 af 3c a8 ec 0c 3e ba be 0d 3e 2a 78 40 bc
       0.021471763 0.13762152 0.13842288 -0.011747399
000250 4d 95 d3 3d 64 93 85 bd 3b 6b 96 3d 4b 29 bd 3c
       0.10331211 -0.06522253 0.07344671 0.02309098
000260 af e6 8e bc a9 a8 b9 3d 16 73 56 bd 33 ae 8c bd
       -0.017443983 0.090653725 -0.05235585 -0.06869163
000270 2c cc f7 bc 0b 30 1a 3d a6 38 36 3e c7 51 17 bd
       -0.030248724 0.037643474 0.17795047 -0.036943223
000280 7d 82 3d 3e 8d 03 23 bd 08 e4 7d bd b4 1c 45 bd
       0.18506809 -0.03979831 -0.061985046 -0.048123077
000290 c1 57 b2 3e a3 7d b4 3c 4c a4 7b 3d fa 63 6f 3d
       0.34832576 0.022032565 0.061435983 0.058444954
0002a0 34 e4 06 3e 59 d5 bf 3d 09 ce c4 3c 88 9f d4 3e
       0.1317299 0.09366865 0.024024026 0.41527963
0002b0 c1 08 5b 3d 87 f9 fa 3c 99 f4 cd 3d 47 b9 9e 3d
       0.053475145 0.030636562 0.10056419 0.077501826
0002c0 4f 10 d2 bc de f8 f2 bc 71 d2 11 3e 4b c4 86 3d
       -0.025642542 -0.029659685 0.14240433 0.06580409
0002d0 39 95 f8 3a a0 f6 7e bd 53 ce 62 3d 76 28 99 3d
       0.001896537 -0.06224692 0.055372547 0.074784204
0002e0 90 90 35 3d f2 5d 68 3d 9d 1f 25 3e 10 2b 3a 3d
       0.04432732 0.05673022 0.16125341 0.045451224
0002f0 40 c7 dd 3d e7 89 d9 3c 6c 9f 12 3e b8 6e e7 3b
       0.108290195 0.026555015 0.14318627 0.0070627593
000300 24 c5 85 3d 31 93 25 3d 12 5c 82 3e 3a 5b dd bc
       0.06531742 0.040423576 0.2546087 -0.02702104
000310 ad a0 a1 bd c8 6c f1 bd f0 11 9e 3d 0b 9f 03 3e
       -0.078919746 -0.117883265 0.07718265 0.12853639
000320 fb 70 ae 3e 5b 87 90 bd b0 3e 8f 3c 2d 6f 11 3e
       0.34070572 -0.07057067 0.017485946 0.14202566
000330 db 33 9a 3d df 2d cd 3c a3 b7 d4 bd cc 75 aa b9
       0.07529422 0.025046287 -0.103865884 -0.00032512692
000340 8a 1e 77 3d 89 c6 45 3d c4 80 0b 3e 2e 31 35 3e
       0.06033186 0.04828504 0.13623339 0.17694542
000350 36 9d 81 3d 30 c6 84 3d 46 0b d5 3d 81 87 4c bc
       0.06328814 0.06483114 0.10402541 -0.0124834785
000360 68 dd 10 3d d3 01 9a 3c 6a 58 50 3d 98 fe 34 3c
       0.0353674 0.018799698 0.05086557 0.011047028
000370 32 e1 2b 3d 04 b1 df bd b1 eb 0f 3e d6 11 93 3d
       0.04196281 -0.10922435 0.14054753 0.07181136
000380 56 67 fa 3b c5 c8 a3 3d ab 3e ab 3d 11 9a 7f 3c
       0.007641713 0.07997278 0.08361562 0.015600697
000390 39 84 eb 3d 64 0b 13 3e b6 4d 82 3d 12 63 be bd
       0.11499829 0.14359814 0.063624784 -0.0929624
0003a0 b7 1d 93 3d 25 f2 95 bd 0c bc c5 3c b5 95 95 be
       0.07183402 -0.07321576 0.02413752 -0.2921578
0003b0 11 dd f0 3d 49 9f 1a 3d 3b 09 99 3d d9 c8 88 3e
       0.11760915 0.037749562 0.07472464 0.26715735
0003c0 36 40 25 bd 1b a6 f3 bb 95 84 54 3e 8a b5 80 3d
       -0.04034444 -0.007435573 0.20753701 0.06284626
0003d0 57 97 40 3d 3b 03 13 3d df 6d 45 bd a0 e4 b6 3a
       0.04701933 0.035891753 -0.048200484 0.0013953634
0003e0 d7 bc ef bd 68 f1 02 be 9f f4 da 3d af 6d e1 bd
       -0.1170594 -0.12787402 0.10691189 -0.110072486
0003f0 a2 ab 02 be 48 ca ac bd 62 b5 a9 bd a1 82 0b 3e
       -0.12760785 -0.084370196 -0.08286549 0.1362405

layers.3.bias f4 [84]
000000 af 6f 73 bd 92 5d 6a 3e dc 47 d3 3d b8 c7 36 be
       -0.05943268 0.22887257 0.103164405 -0.17849624
000010 93 96 22 3e 4c 3e 45 bd 82 e9 15 bd 01 bb 8d bc
       0.15877752 -0.048155114 -0.036599644 -0.017301084
000020 c7 63 4d be 2e ef 2e bd bf 5e 02 be 98 5b ec bd
       -0.20057593 -0.04270857 -0.12731455 -0.115409076
000030 57 0e b7 3e 16 b6 d4 bd b0 9d 7a bc c2 8d 00 be
       0.35753128 -0.10386293 -0.015296385 -0.12554076
000040 5b 79 5c 3d 71 10 17 be 24 8e 86 bd c4 13 43 3e
       0.05382667 -0.14752366 -0.0657008 0.19050509
000050 f4 65 b1 bd ce 08 21 be a0 27 50 3c 99 a8 78 3d
       -0.08662024 -0.15726015 0.01270476 0.060707662
000060 e6 dd 84 3e e0 c8 17 bd 8b 27 c3 bd 48 01 9a 3d
       0.25950545 -0.037056804 -0.095290266 0.07519776
000070 25 16 79 3e 0b fc 3b 3e 86 f3 b9 3d e7 f8 a4 3e
       0.24324854 0.18357866 0.090796515 0.32221147
000080 a8 e3 59 3e 95 36 c5 bd 3c 04 4e 3c 8e 3d 34 3e
       0.2127825 -0.09629551 0.012574252 0.17601606
000090 57 7f 3a bd cf d1 92 3b 82 d4 1f 3d 13 5f 78 3e
       -0.045531597 0.0044805775 0.039021023 0.24255018
0000a0 27 dd aa 3d 9d c4 b6 bd 99 b6 fa 3d de 84 04 3e
       0.08342963 -0.0892422 0.12241859 0.1294131
0000b0 6a b2 97 3e 94 5d a4 3c a4 dc e0 bc f2 60 49 3e
       0.29628307 0.020064153 -0.02744896 0.19665888
0000c0 19 41 cd bd b3 a8 1d 3c b5 65 51 3e 04 aa d4 bd
       -0.10022182 0.009622741 0.20448954 -0.103839904
0000d0 40 29 80 be 22 1f 47 be 39 18 9b 3e 76 c3 0b 3e
       -0.2503147 -0.1944547 0.30291918 0.13648781
0000e0 8a 7f 17 be 84 a8 de bc f2 23 73 bd 66 3d 95 3e
       -0.14794746 -0.027179964 -0.059360452 0.29148406
0000f0 9a a2 ef 3d 18 ae 04 3d da 18 a5 3d cd fc 09 3e
       0.11700936 0.03239259 0.08061381 0.13475342
000100 6a 75 cd bc d2 36 2c be c7 2d 83 3e 5d 6e f6 3c
       -0.025080401 -0.16817787 0.25620863 0.030081922
000110 02 da a9 3e 6c 35 6f 3c 67 30 0a 3e 98 a6 b6 bd
       0.3317414 0.014600139 0.13495027 -0.08918494
000120 c6 09 ba bc ce 14 5c be 33 91 ab 3d 5a e9 d1 bd
       -0.022709738 -0.21492311 0.08377304 -0.102495864
000130 17 a1 03 be c4 a1 00 3e c0 ed e4 3d 86 b8 f3 bd
       -0.1285442 0.12561709 0.1117816 -0.119004294
000140 e0 52 21 3e d0 0b d1 3d be 93 0e bd 93 e5 c4 bc
       0.1575427 0.10207331 -0.034808867 -0.02403525

layers.5.weight f4 [4, 84]
000000 d9 61 cc 3c 6d 4a 92 be ab cc ef bd 0a 4b 0c be
       0.024949001 -0.28572407 -0.11708959 -0.137005
000010 cb 6a 15 3e bf 96 15 3e 54 17 ce 3d c8 a7 e6 3d
       0.1459152 0.14608286 0.10063043 0.112624705
000020 30 db 46 3c 08 4a 6b be 56 c8 28 3e 56 b6 1b 3d
       0.012137219 -0.2297746 0.16482672 0.038015686
000030 be 6d ef bd 74 12 83 be d0 10 e1 bb fe 7f 0b be
       -0.116908535 -0.25600016 -0.0068684593 -0.13623044
000040 20 55 0f be f7 b5 95 be c7 0b c6 3d 4b c9 57 be
       -0.13997316 -0.2924039 0.09670215 -0.21072881
000050 fc 10 ea 3d 5f 6c 04 bd 47 e6 21 3e 58 b0 27 be
       0.11429021 -0.032329913 0.158105 -0.16375864
000060 e7 17 48 be 38 15 81 be bc 4f 84 bc 4c 47 03 3e
       -0.19540368 -0.252115 -0.016151302 0.12820166
000070 3e 4a 12 bb d9 c3 ab 3d 2e c6 71 bd 02 05 d2 bd
       -0.0022322084 0.08386964 -0.05902689 -0.102548614
000080 f8 d7 2a 3e 7a 56 dd bd 70 c2 44 3c c6 1e 82 be
       0.16683948 -0.1080751 0.012009248 -0.25414103
000090 d6 44 60 bd 20 31 3b bc 09 1e 00 be 33 4d a2 be
       -0.054753147 -0.0114252865 -0.12511458 -0.31699523
0000a0 f3 d9 58 be f8 36 45 3e 2f 88 d4 bd 88 60 63 be
       -0.21176891 0.1925925 -0.103775375 -0.22204792
0000b0 cf 8d 53 be aa ff 57 3d ae 89 99 bd 70 dc 0d be
       -0.20659564 0.052734055 -0.074969634 -0.13853621
0000c0 f2 c4 fa 3d df 6c 04 be f4 94 0e 3e 84 7f c8 bc
       0.122445956 -0.12932156 0.13924009 -0.024474867
0000d0 09 c3 1d be 6d 46 a9 3c a1 19 a0 3c 55 67 11 be
       -0.15406431 0.020663464 0.01954347 -0.14199574
0000e0 11 7a 67 bd f9 7f 0c bf d9 0c a4 3d 8e d8 96 be
       -0.056512896 -0.5488277 0.08010263 -0.29462093
0000f0 dc ff ab bd fe 3f f1 3b fb ff 7e be 6b b3 06 be
       -0.08398411 0.007362365 -0.24902336 -0.1315438
000100 74 79 1b be cb 62 29 be 69 d7 2c be c8 51 b9 3d
       -0.1518305 -0.16541593 -0.16879047 0.09048802
000110 d5 95 f7 bd 43 ae 39 3e 41 3c 91 3d e7 2f 88 bd
       -0.12089125 0.18132882 0.07091571 -0.06649762
000120 a0 1a 23 3e d6 46 42 be 25 6d 1c be 9c fa b8 bd
       0.15928125 -0.18972334 -0.1527601 -0.09032175
000130 2e 7b 14 be 90 a6 93 be 87 6f d1 bd 45 fb 74 3d
       -0.14500114 -0.28838015 -0.1022635 0.05980994
000140 b1 89 86 3d a7 5d 6a 3d 43 47 10 bc e7 d0 c9 3c
       0.06569231 0.05721822 -0.008806053 0.024635745
000150 35 e1 5c 3d 8e d2 31 3d ba 26 4f bd 29 21 06 3e
       0.05392571 0.04341369 -0.050574042 0.13098587
000160 95 74 08 be 59 97 d8 bd cc 91 fe bc 10 dd d5 3c
       -0.13325723 -0.10575742 -0.03107538 0.026106387
000170 c6 b0 0d bd ac 9c db 3d fb a0 50 be 0c 3d 6a 3d
       -0.034592412 0.10723242 -0.20373909 0.057187125
000180 d6 4c 83 bd 00 ca 0d 3e f1 d8 8b bd 4c 77 cf 3d
       -0.0641114 0.13846588 -0.06828488 0.10130176
000190 39 21 57 bd f5 a2 1d 3d 68 1d 65 bd f7 82 04 3e
       -0.052521918 0.038485486 -0.055936247 0.12940584
0001a0 4f 47 f0 bc a8 28 b7 3d be c1 83 be b0 f0 fb bd
       -0.029330878 0.089433014 -0.2573375 -0.12301767
0001b0 f9 5d 90 bd 08 b9 4e bc 12 58 77 bd e7 d4 cd bd
       -0.07049174 -0.012617357 -0.060386725 -0.100503735
0001c0 98 a3 d3 be 8b 63 f4 3c e2 fb 80 3e c8 dd d4 bc
       -0.4133575 0.029832622 0.2519217 -0.02598466
0001d0 9d ed 96 be db 7e 03 3e 00 d9 31 be 1c 7e d6 bc
       -0.2947816 0.1284136 -0.17367935 -0.02618318
0001e0 65 51 8a bd 2a eb 1f 3d f4 36 67 be 27 14 86 3c
       -0.06753806 0.03904263 -0.22579557 0.016367031
0001f0 0c 78 8d be 54 ef 2a be 15 7f cd 3d e7 2f 37 3d
       -0.2763065 -0.16692859 0.100340046 0.044723418
000200 80 3f 82 be cd 74 84 3d ab 44 33 3d f4 46 ba bd
       -0.25439072 0.064675905 0.04376666 -0.090955645
000210 c9 53 2e 3e 28 c7 a7 3d 40 b7 3e be 0d 21 f2 3b
       0.17024149 0.08192283 -0.18624592 0.007389194
000220 18 38 63 3e ee f9 69 3d 38 e5 69 be ff 28 1f be
       0.22189367 0.057123117 -0.22841346 -0.15542983
000230 05 bd 6b 3d bf 86 07 be 9d 49 35 be 6d 54 93 bd
       0.05755331 -0.13234995 -0.17703862 -0.07193837
000240 d4 ba 08 be e4 0e 90 bd 22 50 0c be e1 6e c3 bd
       -0.1335252 -0.0703409 -0.13702443 -0.09542633
000250 4e e8 9c 3e a1 a6 17 3e 98 c9 38 be f7 e8 89 3d
       0.30645984 0.14809658 -0.18045652 0.06733888
000260 d2 b9 49 be c7 b2 e4 bd 34 21 b9 3d 5b 2e 13 bd
       -0.19699791 -0.111669116 0.09039536 -0.03593288
000270 6f 4d 22 be cd cf 11 3e a2 de 9a 3d f7 54 18 3e
       -0.15849851 0.14239426 0.07561995 0.14876162
000280 59 64 33 3e e6 ce f7 bd 64 74 dd 3d 84 fb 53 3d
       0.17518748 -0.121000096 0.108132154 0.051753536
000290 eb ea 72 be 75 9d 8e be bb 37 c5 bd ac 87 16 be
       -0.23722427 -0.27854505 -0.0962977 -0.14700192
0002a0 e2 74 7f be 5f 52 e2 3d a9 38 e2 bd 22 9d 60 be
       -0.24946931 0.11050867 -0.11045963 -0.21934941
0002b0 59 d2 c8 3d 51 6d 25 be 2a 74 9e 3d 8f 70 97 be
       0.09805746 -0.16154982 0.07737 -0.29578063
0002c0 39 41 59 be 57 be 2b be 2b c0 34 be bf 39 ac 3d
       -0.21216287 -0.16771828 -0.17651431 0.08409452
0002d0 87 29 1e 3e b7 ab 26 be 7f 03 00 3e 2c 94 2c be
       0.15445529 -0.16276442 0.12501334 -0.16853398
0002e0 3f 03 3a bd 81 ed 6e be b2 42 9f be 41 5d 2d 3e
       -0.045413252 -0.23332788 -0.31105572 0.16930105
0002f0 07 e0 a8 bc f7 49 13 be 08 2f 65 be 85 9c f7 bd
       -0.020614637 -0.14383684 -0.22381222 -0.120904006
000300 b6 ce 50 3e 2f 11 9a bd c3 19 26 3c b4 bd 97 bd
       0.20391354 -0.07522809 0.010137978 -0.0740923
000310 97 0a 57 3e aa 7a 07 3e 1a 81 16 3d b6 de 1e 3e
       0.21000133 0.13230386 0.036744215 0.15514645
000320 eb 34 99 3d 7f 40 83 be a2 b7 13 bd d8 e2 56 3c
       0.074807964 -0.25635144 -0.036063798 0.013115607
000330 28 04 06 bd 48 e8 7e 3d af 45 98 bd d3 8c 0d 3e
       -0.032718807 0.06223324 -0.07435166 0.13823251
000340 d3 e0 14 3e a6 8d 88 be 93 ab 95 3d 46 21 2f 3e
       0.14538889 -0.2667057 0.07308116 0.17102537
000350 93 42 1a 3e 3c f3 10 3d b4 e2 47 be 72 af 1b 3e
       0.15064459 0.035388216 -0.19520074 0.15203646
000360 84 1c 4f be 9b 15 47 3d 6a b5 95 3d 3a e9 85 3c
       -0.20225722 0.04860459 0.073099926 0.016346563
000370 7b ef ae be 34 0d 76 bc 1c 1e 1c 3e 6b c9 96 3d
       -0.34167084 -0.015017796 0.15245861 0.07362636
000380 38 b6 c4 bd 16 4a e9 bd e7 d5 2d be 53 0d 2b 3e
       -0.09605068 -0.11391084 -0.16976129 0.16704302
000390 31 45 aa 3d 4a 53 da bd 95 1a f9 bc a6 22 07 3c
       0.083139785 -0.106604174 -0.030408183 0.008248007
0003a0 46 db 74 be 87 a2 15 be 71 0f 5e 3e 35 ee 8d 3d
       -0.23911771 -0.1461278 0.21685578 0.069302
0003b0 fe 90 04 3e 46 ae 16 3d 78 e3 ee 3d a9 3a 06 be
       0.12945935 0.036787294 0.1166448 -0.13108315
0003c0 d0 e3 57 be 82 aa 1f be af 1e 0b 3e 2d a2 b4 bd
       -0.21082997 -0.15592387 0.13585924 -0.08819995
0003d0 32 d6 22 be 34 e7 05 bd dc f9 fd 3d a7 14 ee bd
       -0.15902022 -0.032691196 0.124011725 -0.11625033
0003e0 fb 9c 37 3e 99 0f 93 3d 6a 6e d4 3c 4d 66 4a be
       0.17930977 0.071807094 0.025931556 -0.19765587
0003f0 53 57 46 3d 16 6b 99 3d 7b 4c dc 3d 5f ab 13 3e
       0.048423123 0.07491128 0.10756775 0.14420842

layers.5.bias f4 [4]
000000 91 92 64 3b 12 b3 2c bd 58 52 45 3e 32 1f 04 bd
       0.00348774 -0.042162962 0.19269693 -0.032256313
