src/rm_opencv_aim/rm_detector/model/mlp.onnx (onnx, 312347 bytes, 6 tensors)

layers.1.weight f4 [120, 560]
00000000: 2974 67bd 6bc6 aebd c537 25be df01 b6bd
00000010: c73d ccbd c8e2 babd c17f 3cbd 04f0 273d
00000020: 1d66 293d e121 f53c b6e2 243d 80b6 febb
00000030: 3352 7b3d 62cd d03b 10a2 92bd 55ef 08be
00000040: 7663 e8bd 20d8 acbd 343b 93bd 7d82 99bd
00000050: 459c cebd 9598 debd 9047 dfbd db9a 14be
00000060: ea08 b2bd d152 d2bd ab0a 81bd 119f ccbb
00000070: e681 8bbb f42a 38bc 2611 de3b 2d87 663c
00000080: f3f5 203d 4783 973d 6495 80bc 0940 eebd
00000090: 7be4 2bbe e703 b7bd 6eeb b1bd 20bf a7bd
000000a0: 30c0 96bd e6b2 ffbd 06e3 34be 5236 9ebd
000000b0: 7faa f1bd de40 15be f54d dfbd bd41 53bd
000000c0: ea6c f4bb abf9 0b3b 4d14 11bd 6cac 0f3d
000000d0: a7fd 05bc 3704 cd3a d111 d9bc 5dc7 2dbd
000000e0: c8a5 edbd d3a1 0fbe ae1e 4bbd bf99 46be
000000f0: 4df2 d6bd 2c1d 87bd 7402 dabd 7e67 f2bd
00000100: 9567 f5bd 50c3 dcbd 33b2 13bd aedc 463b
00000110: 4fbd b23c cecf 45bc 4a03 3a3d aafc 873c
00000120: 0f3f 9a3d 7285 af3d c4d0 b5bc 7a4c a1bd
00000130: ec3a 3cbe 7e64 3abe 4a4f 10be c785 1cbe
00000140: 0e7a 98bd e5e6 afbd feba dabd 6ee3 e2bd
00000150: 04e1 ebbc d715 89bd e9d3 c73b e57e ef3b
00000160: 9bd4 753d 6a2d 043d 57ba ff3c 037c ab3d
00000170: 7657 e43c 3262 bfbb 80d9 86bd e6e7 babd
00000180: 7d8e 02be 48d5 36be 025f fabd 2a03 d9bd
00000190: f166 c4bd 1d7b 053c 0340 6dbd 91de a0ba
000001a0: 4907 11bd 90b8 143b 3aca d33c c8f8 dd3c
000001b0: f428 a63c aef4 e03c de0a 263d b3f8 a23d
000001c0: c02a a43d e7b9 7f3d de1b 2b3d 3d61 c0bb
000001d0: 112f 93bd 1de6 afbd 490b acbc 0078 c8bd
000001e0: 1160 583d 2b72 1c3d 87f5 163c c20b 033d
000001f0: 3966 1cbc ab83 1bbc fdab 373d e0f9 0c3d
00000200: c627 823c f40d ddbc 2f8a 123d 8c26 8f3b
00000210: c274 8c3d e5cd 173c 6425 7abc 4bfb afbb
00000220: 9d35 1e3d 95d1 413d 15d6 153d e2d4 c6bd
00000230: b9fc aa3d e321 94bb 1b27 cf3b 6086 b2bc
00000240: 000b 00bd 9ef8 233d 5f50 963d e950 153d
00000250: 5844 513b f2a4 b83c d82e e537 e904 2dbc
00000260: 1539 123c 1db3 953d db76 5c3d bf0f f5bb
00000270: fcc3 8cbc 44a4 033d 606c 843c 228a 013d
00000280: 2acd e43c 39db 433c 8025 91bb 1efd 983b
00000290: 8454 4b3d cb18 b03d 63ca 003d 0f9c 463d
000002a0: 64c4 ae3c 7d81 92bb 44aa fbbc f124 85bd
000002b0: 6b2b 373d 7b38 97bc 7b1f c73c ef42 cebb
000002c0: 4296 97bc 6d6c 1f3c 5a29 6b3d e57c b53c
000002d0: 430c 633c 95e9 d43d b74b ed3c 1cf5 8b3d
000002e0: 9d61 d53d b797 933d dcf0 423c adf0 963c
000002f0: bc1d 6a3c d9f4 6fbd 0d9b 80b9 bba0 58bd
00000300: ffc3 2b3d feb8 bd3d e8ee fb3d 7cd4 193d
00000310: 144d 7b3d 136b bd3d 0b8c 403d 6c0b ec3c
00000320: 13ea be3d ea6b 843d 98a8 113d ad26 ab3d
00000330: 5a98 4f3c 7cbd 173d 813e 81bd c48e 1bbe
00000340: a2ff 3abe 5d9a b4bd b597 9cbd 99e3 a1bc
00000350: 7426 9a3d 05d2 663d d27e ce3d 2f96 6e3d
00000360: 6ab1 433d 94ca a83d bc8f 323d cd63 e23c
00000370: b9db 8f3d 7a4c a03d dd64 d23d db0c 473d
00000380: aca3 d53d ea2c 6d3d 2996 0bbb a925 3dbd
00000390: 263e cdbd 6d8e dbbd 0c9e c9bd 8b23 213b
000003a0: 2b55 023d e1f7 763d bf77 bc3d 69e3 2a3d
000003b0: d78c b53d 53bc c83d d42e ea3d 45e4 0a3d
000003c0: 8480 cf3d 5ad8 993d d50c 9f3c 9ab1 793d
000003d0: 778c f33c e9ac 9b3c a146 afb9 8b10 79bd
000003e0: 6bd3 b8bd a813 25bd 2d71 97bd ab28 47bd
000003f0: 46d2 e03c 0080 ed3c f31e 253b 160a aeba
-0.056507263 -0.08533939 -0.16134556 -0.08887076 -0.099727206 -0.09125286 -0.046020273 0.04100038
0.04135715 0.029923381 0.04025527 -0.0077732205 0.06135769 0.00637214 -0.07159817 -0.13372548
-0.11347096 -0.0843966 -0.071890265 -0.07495592 -0.100884 -0.108689465 -0.10902321 -0.14512198
-0.086931065 -0.10269702 -0.06300863 -0.006244548 -0.0042574285 -0.01124071 0.0067769466 0.014070314
0.039297055 0.07398086 -0.015696235 -0.116333075 -0.16786377 -0.08936291 -0.08687483 -0.08190751
-0.073608756 -0.12485294 -0.17664728 -0.077252045 -0.11800098 -0.14575526 -0.10903541 -0.051576365
-0.0074592726 0.002135853 -0.03541975 0.035076544 -0.008178151 0.0015641515 -0.026497753 -0.042426456
-0.11603886 -0.14026575 -0.049589805 -0.19394587 -0.10495434 -0.06597361 -0.10644999 -0.11836146
-0.11982647 -0.107794404 -0.036058616 0.0030343938 0.021818785 -0.01207347 0.045413293 0.016599972
0.07531559 0.085703745 -0.022194274 -0.07875915 -0.18381852 -0.18202397 -0.14092746 -0.15285407
-0.07445155 -0.085889615 -0.10680197 -0.11078535 -0.02879382 -0.06693619 0.0060982597 0.007308828
0.06001721 0.032269873 0.031216783 0.08373263 0.027873736 -0.005840563 -0.065844536 -0.09126262
-0.12749667 -0.17854798 -0.122251526 -0.105963066 -0.09589947 0.008147028 -0.057922374 -0.0012273361
-0.03540734 0.0022693016 0.025853265 0.027096167 0.0202832 0.027460422 0.040537708 0.07957592
0.080159664 0.06243315 0.041774623 -0.0058709667 -0.071867116 -0.085888125 -0.021001475 -0.09788513
0.05282599 0.038194817 0.009213812 0.031993635 -0.009545856 -0.009491841 0.044841755 0.034417987
0.015888106 -0.026984192 0.035776313 0.004368609 0.06858207 0.009265398 -0.015267704 -0.0053705326
0.03862535 0.047319014 0.036581118 -0.09708573 0.08348984 -0.004520641 0.0063218004 -0.02179259
-0.03126049 0.04003202 0.07339548 0.036454115 0.0031931605 0.02253959 2.732074e-05 -0.010560253
0.008924742 0.07309554 0.053824287 -0.0074786837 -0.017183296 0.032139078 0.016164958 0.031625874
0.027929861 0.011954122 -0.004429519 0.004668846 0.049641147 0.08598479 0.03144301 0.048488673
0.02133388 -0.0044710026 -0.030720837 -0.06501187 0.04471914 -0.01845955 0.024307003 -0.0062946
-0.018504266 0.009730441 0.057412483 0.02215428 0.013857904 0.10396115 0.028966768 0.0683386
0.10419009 0.07206672 0.011898246 0.01842531 0.014289316 -0.058583114 -0.00024529584 -0.05288766
0.041934963 0.092638 0.12301427 0.037556157 0.061352804 0.092489384 0.047008555 0.02881404
0.0932199 0.064658955 0.035561174 0.08356986 0.012670601 0.03704594 -0.0631075 -0.1519118
-0.18261579 -0.08818505 -0.07646123 -0.019761847 0.075268656 0.056352634 0.10082783 0.058248695
0.047776617 0.08241764 0.043594107 0.02763548 0.07024331 0.07827087 0.102731444 0.048596244
0.104316086 0.05790416 -0.002129922 -0.046178494 -0.100216195 -0.10720525 -0.09844598 0.0024587836
0.031819504 0.06029499 0.09202527 0.04172078 0.08864754 0.09801545 0.11434713 0.0339091
0.10131934 0.07511969 0.019415298 0.06096039 0.029730065 0.019003348 -0.00033431224 -0.060806792
-0.090247 -0.04030195 -0.073946334 -0.04862277 0.027444016 0.0289917 0.002519545 -0.0013278152

layers.1.bias f4 [120]
00000000: 6085 0c3e 3db9 033a 21ef 7f3e 92f3 893d
00000010: 5981 37bd 29c8 babc ba36 09be 7c05 413b
00000020: a28f 7ebd 28c3 fcbc 1d58 3b3d 98cf 10bd
00000030: 4d6e 1cbd aed9 2dbe 4c67 8cbb 5ff4 bebd
00000040: 367d e93d 4d3a 823d 1c7b 9dbd d914 1b3e
00000050: 73f6 15bd 58a8 1d3d b455 a23c 1f59 7fbd
00000060: 018e 05be 0aaf 95bd afb5 d43d dbce f0bc
00000070: 94b4 d9bc 6033 483d 78e0 13bd 5828 7dbd
00000080: dc1b d0bd 1999 85bd 1f04 22bd eaa2 47bd
00000090: df3f ad3c 3d8e 7c3b 4ca9 33bd 260c e63c
000000a0: 7a2a a0bc 4d78 1c3e 0843 463d 5aad 273e
000000b0: 3bbf 023e dc41 a2bc 905c 14be 1ed9 053e
000000c0: f229 343e b58d a4bd 86cf fe3d ce7b abbd
000000d0: 5f93 4dbd aec1 acbd e752 9fbd 4984 963c
000000e0: 1b3f 8ebd 1d8c bbbc 0a95 98bd 0d47 1a3d
000000f0: 61e1 443e 62f5 d93c 1c64 7ebb cd24 63bd
00000100: 6cde b7bd db5e 013e 29ea c7bb 4c62 ebb9
00000110: 360e a53c d072 273d c2af f53c 28b1 1abe
00000120: f296 0f3e 57e5 f7bd 339f 813d 2718 24bd
00000130: 05e5 143d 9bbd 4ebd bab9 033e 9481 173e
00000140: 01f5 dd3d fea7 673d 0721 eabc 561e 1abe
00000150: e21a 40bd 9df2 ddbd 801d 26bd 077c d5bc
00000160: 8a07 21bd b099 10bd ce41 08ba 12e4 2f3e
00000170: e74b 86bc 9edf 7ebd 9940 873b 7597 d2bd
00000180: 3a7c 31bd 2a24 a03d 4c0f ad3d b7e0 963d
00000190: c4ff 513e 6c3f 49bd 2a7e 60bd f911 a7bd
000001a0: fecd 94bd 9c3c 85bc 70b7 a7bd aa6a 9e3d
000001b0: bd2e 263d f15b 3bbd c571 033e e340 1ebd
000001c0: cd53 013b 35e9 cbbd c32a e8bc 8f64 17bd
000001d0: ab54 96bd fb87 bbbd 4a1d 3a3b 5e5e 86bd
0.13722754 0.0005024856 0.24993564 0.067359105 -0.04480109 -0.022800522 -0.13399783 0.0029452732
-0.062148698 -0.030854777 0.04573833 -0.035354227 -0.03819113 -0.1697757 -0.004284775 -0.09323954
0.11400835 0.06358776 -0.07689497 0.15144671 -0.036611985 0.038490623 0.019816257 -0.062340852
-0.13042451 -0.07308777 0.10386216 -0.029395511 -0.026575364 0.04887712 -0.036102742 -0.061806053
-0.10161564 -0.06523342 -0.03955471 -0.04873935 0.02114862 0.003853693 -0.043862626 0.028081965
-0.019551504 0.15280266 0.04840377 0.16374722 0.12768261 -0.019806795 -0.14488435 0.13071105
0.17594126 -0.08034841 0.12441926 -0.08373223 -0.050189372 -0.08435379 -0.07779484 0.018373625
-0.0694563 -0.02289396 -0.07450302 0.037665416 0.192266 0.026606265 -0.0038816994 -0.055455018
-0.089779705 0.1263384 -0.006100912 -0.0004489593 0.020148378 0.040880978 0.029991034 -0.15106642
0.14022425 -0.1210429 0.06329193 -0.040062096 0.036351223 -0.05047379 0.12863818 0.14795524
0.108377464 0.056556694 -0.028580202 -0.15050635 -0.046900637 -0.108372904 -0.040555477 -0.026060117
-0.03931383 -0.035302818 -0.0005197794 0.17176846 -0.016393615 -0.062224977 0.0041275737 -0.102827944
-0.043331362 0.07819398 0.08450183 0.0736708 0.20507723 -0.04913275 -0.05480782 -0.08157725
-0.072658524 -0.016264252 -0.08189285 0.07735188 0.040571917 -0.04574198 0.12836368 -0.0386361
0.0019733787 -0.0995659 -0.028340703 -0.036961135 -0.07340368 -0.091567956 0.0028398805 -0.06560968

layers.3.weight f4 [84, 120]
00000000: 2e88 c6bc 5479 553d 2236 5b3e 05be 82be
00000010: 06c1 833d ba1f 353e 8142 603d 177a 54bd
00000020: f0c6 87bd 1691 073e f20d 0e3e 0c4b 65bc
00000030: 6b31 d73d 6fb6 8dbd 6f74 07bd c9cc 873e
00000040: 7662 733d 2882 b83e 46a7 193c ec37 b23e
00000050: 8da7 c63c 0d0e cdbe 23e6 ab3d c759 813d
00000060: be0e b13c 4bce a53d 0c40 7a3d d481 cb3d
00000070: e1a9 86bc 6869 df3c 2c09 5fbc 1b7b 47bd
00000080: fee7 50bd 4dfb fd3d 2da0 b4bc 2315 c83a
00000090: e605 083d caa5 e73d 9c36 0c3e ad68 4e3d
000000a0: 8f05 99bb 1a75 243e b9bc 213e 5fae e03b
000000b0: b3c3 663e 47be 553d d916 17bd 49b0 d23e
000000c0: 4169 333e 8def be3d ce62 c23d e329 a93d
000000d0: bd2b 9e3d a48b 3f3d 1cbe 793d 5483 c43e
000000e0: 0264 cc3d c710 de3d d3b2 153d 99ab 00bd
000000f0: 1081 303e 8755 e6bd ce19 3fbd 1f66 b73d
00000100: 9f89 cf3c 1617 fb3c 0510 ca3b 79e6 d33b
00000110: 7487 a33d 5340 933d c479 233e 172b 223c
00000120: 97a0 b33e 4bfe f2bd 6717 a8bd c5ba a63d
00000130: dac4 4f3d 31cf 893c faa9 ba3d 4c61 9d3e
00000140: a84a 9b3d e4d3 1a3e 56b7 9e3c fc2b 8abd
00000150: f5bb b03c 8453 513d fca8 f63c ba5f fbbb
00000160: be22 55bd f876 243d 042b 69be 3843 e93d
00000170: 4619 493e f62b 9c3d f31c 883d 93dc af3d
00000180: 751c 1abc 3dd5 3f3d e779 bfbd 64f4 0d3e
00000190: 878e 883e fd5c 363d eb60 b43d 697f 61bb
000001a0: 68c1 50bd 41f0 e63c d056 bbbc 8f80 d33d
000001b0: d456 e53d cbbd 14bd 8f75 72bc 7aa8 c0bb
000001c0: de1b 623a 5df3 423b 92cc c33d e463 92bd
000001d0: e263 1f3e 7b71 eb3d 5989 41bd fba9 bb3d
000001e0: 1baa 08be cd37 d7ba 66a2 af3d 5096 64bb
000001f0: ffb8 48bd c512 a83d 2f7e fe3c 4625 973d
00000200: dc2a ac3d ca7d 113e 89ea bb3d da60 2d3e
00000210: 7c25 733d 47fd 2e3e dd75 493d 2984 25be
00000220: 92a7 893d 74b4 593d 7775 efbd e18e 2d3c
00000230: 0a49 463d c7f9 bb3d 70c9 d8bb 6cf6 dd3d
00000240: 2273 623e 2f63 a73d 65ac b2bd 8bac a03b
00000250: b7fc e03c 6186 a1bd e9cd 043d f16e 8a3d
00000260: 8168 a03d e442 2fbd 7a90 9e3d 4446 0ebc
00000270: e162 d1bd 66c2 b1bd 5359 02bc b4d9 5ebd
00000280: 3dce 04bd 7ce4 2ebc e1d6 a4bd e0e2 d4bd
00000290: cca1 e4bc f603 04be 7722 683d d110 3e3e
000002a0: 7e8c c53d abc2 0e3d f2fd 03bd 0ceb e0bc
000002b0: e840 c83d 1836 533e 2c23 8abd c0ad 153e
000002c0: 9772 063e aea0 053e a81a 6b3c 2d7c 08bd
000002d0: fb85 a13d cd29 d33d 1787 5d3d e7f8 acbb
000002e0: ffe3 413b 3e0a 12be 8f0a 5b3d 2e89 77bd
000002f0: 1203 c33c 0020 933d 5a37 3f3e 9bcb f73d
00000300: 0f6f b63d 8f28 453d 9d01 cd3b a86e 043d
00000310: ee5f 593d 19c3 383d 2e95 2c3d f832 26bd
00000320: eb5e 833c bbb3 cebd fd06 1d3d 035f cb3d
00000330: 83fd 35bb 2dcc 9f3c d14f 3c3d d386 f1bd
00000340: 7034 8a3d 8ff1 3dbd 4d36 bbbd c1e5 a7bd
00000350: 34f5 b7bd 4036 a83d b1a8 343d 666a e63d
00000360: 07a0 0e3e 0d7e be3d 07e5 603d 6963 7a3d
00000370: 96dc 8b3d b9bd 0cbd 122d 203d 96b2 9d3d
00000380: 4aad 163e f2c9 4fbe 79ca 2f3c 5f72 5bbd
00000390: 9cf2 ce3d c991 9b3d 551f 94bd 60ac f53c
000003a0: 27af b83d 41c9 b3bc c1ee e5bc b477 9f3d
000003b0: f09a b8bd 4b21 6bbd 197c 27bd c8e0 8bbd
000003c0: 9419 713d bb45 a33d a359 11be 8aa4 533e
000003d0: 991b 663d 3318 eb3c 1660 113e b351 c5bc
000003e0: 92f4 cabd eee5 47bd c7af 853d 62b8 173e
000003f0: e84f d13c 9f09 12bd 15c1 c9bd 38aa 0f3d
-0.024234857 0.05211766 0.21407369 -0.25535598 0.06433301 0.17687884 0.054750923 -0.051874246
-0.06629741 0.1323894 0.13872507 -0.013994943 0.105074726 -0.06919562 -0.033070024 0.26523426
0.05942007 0.360368 0.00937826 0.3480829 0.024249816 -0.40049782 0.083935045 0.06315952
0.021613475 0.08095988 0.061096236 0.09936872 -0.016438426 0.027271941 -0.013613027 -0.048701387
-0.051002495 0.124014474 -0.022049034 0.0015265088 0.03320875 0.11310919 0.13692707 0.050392795
-0.004669852 0.16060296 0.15794648 0.006856724 0.22535591 0.052183416 -0.036887024 0.4115012
0.1752062 0.093230344 0.09491502 0.082599424 0.07723186 0.04676403 0.060972318 0.38381445
0.099800125 0.10843044 0.036547493 -0.03141365 0.17236733 -0.11246782 -0.04665547 0.08955025
0.025334178 0.030650657 0.0061664605 0.0064666835 0.0798482 0.07190003 0.15964419 0.009897969
0.35083458 -0.11864909 -0.08207589 0.08141092 0.05072484 0.01682243 0.09114452 0.30738294
0.07582599 0.15119892 0.01937453 -0.067466706 0.021574 0.051105037 0.030109875 -0.0076713236
-0.052035086 0.04015252 -0.22770315 0.11389774 0.19638547 0.076255724 0.066461466 0.08586993
-0.009406199 0.04683422 -0.09349423 0.13862759 0.2667124 0.044522274 0.08807548 -0.0034408218
-0.050965697 0.028190734 -0.022868544 0.10327255 0.11198202 -0.036313813 -0.014798536 -0.005879459
0.00086253684 0.0029747107 0.09560503 -0.07147959 0.15565446 0.11496254 -0.047250126 0.091632806
-0.1334614 -0.0016419828 0.08575897 -0.0034879632 -0.04900455 0.08206705 0.031066028 0.07380156
0.08406612 0.14208141 0.091755934 0.16931477 0.05936192 0.17088805 0.04918467 -0.16163696
0.067214146 0.05315061 -0.116923265 0.010593147 0.0484095 0.091785006 -0.00661581 0.10838017
0.22114232 0.08173215 -0.08724288 0.004903381 0.027464254 -0.07886959 0.032422934 0.06759442
0.078324325 -0.0427884 0.077424005 -0.008683745 -0.10223938 -0.08679657 -0.007955867 -0.054406837
-0.032423247 -0.010674592 -0.080487974 -0.103948355 -0.027909182 -0.12892136 0.056673493 0.18561102
0.096459374 0.03485362 -0.032224603 -0.02745583 0.09778005 0.20626104 -0.0674499 0.14617062
0.1312965 0.13049576 0.014349617 -0.03332155 0.07886883 0.10310707 0.05408391 -0.005278695
0.002958536 -0.1426172 0.053476866 -0.06043356 0.023805175 0.07183838 0.18673459 0.120993815
0.089079015 0.048134383 0.006256296 0.032332093 0.05307 0.045107935 0.042134456 -0.04057595
0.016036471 -0.100928746 0.038336743 0.099302314 -0.0027769513 0.019506538 0.045974556 -0.11793294
0.06748283 -0.046372946 -0.091412164 -0.08198119 -0.08982316 0.08213472 0.04410619 0.11250763
0.13928233 0.09301386 0.054905917 0.06112996 0.06829183 -0.03436062 0.039105482 0.07700078
0.14714542 -0.2029188 0.010729426 -0.05357587 0.10104868 0.07596166 -0.072325386 0.029989421
0.09017783 -0.021946551 -0.028067948 0.077865034 -0.09013927 -0.057404798 -0.040889833 -0.06829983
0.058862284 0.079722844 -0.1419435 0.20668235 0.056178663 0.028698063 0.1419681 -0.024086809
-0.09909929 -0.048803262 0.065276675 0.1481643 0.025550798 -0.035653707 -0.098512806 0.035074443

layers.3.bias f4 [84]
00000000: b597 40bd 2e49 bdbd 3978 6a3b 44ef d7bc
00000010: ce07 353c 5d3d 85bd 6f55 99bd 49f9 3f3e
00000020: f555 21bd 0785 8b3d b5b1 1abc 9634 9f3d
00000030: 547d ec3d 886f 8cbd d256 b8bb 6c17 66ba
00000040: 391b c63d 7ffe 393e deda 0c3e 1ae0 0f3c
00000050: e7ff 2d3c 265f 773d 300b 6cbc fc5b b03d
00000060: bfcb a9bd 27d0 65bd e4ab 9d38 8343 53bd
00000070: 1bce 053d eb68 193d ba2c ad3c 5837 6bbd
00000080: d213 d6bd 8558 403e 3995 133e e491 93bd
00000090: fb54 99bd 92cb c73b 0aea 1d3d a8b1 a03c
000000a0: c595 023e d254 72bc ad55 a0bd 8ff2 a4ba
000000b0: da43 7ebd f74d 5a3d 0bd4 823d ba70 4d3d
000000c0: 393c 7d3d 3d65 1fbd 62e0 debd cd7a 43bd
000000d0: 71f4 6cbc d1f5 10be c320 ca3c ecdb cb3d
000000e0: 9e38 88bd 9393 03be d15a 3e3d 078a 0d3d
000000f0: 3c5b 4bbb 6853 593d f834 7cbc 036e 803d
00000100: 3c1d 6a3d 49a0 d8bd daae 213c 8b12 b0bb
00000110: 9523 a3bc bc7f d0bd 850a e93d 1561 9abd
00000120: 4184 633d 5455 dabd 1add bcbc f3a0 383d
00000130: 04e1 403d 8db6 a9bd 6a67 323c ae0f 8ebd
00000140: ea9c 013d d249 833d c7e7 d53d 9ab3 ad3d
-0.04701968 -0.092424735 0.0035777225 -0.026359208 0.011049224 -0.06505845 -0.07486998 0.18747438
-0.039388616 0.06812482 -0.009441783 0.07773702 0.11547342 -0.068572104 -0.005625584 -0.0008777294
0.09673161 0.18163489 0.13755366 0.008781457 0.010620094 0.060393475 -0.014406964 0.086112946
-0.082908146 -0.056106713 7.5183605e-05 -0.051578056 0.03266726 0.037453573 0.021139491 -0.057425827
-0.10452999 0.18783768 0.14412393 -0.07205561 -0.07486912 0.0060972655 0.038553275 0.019615963
0.12752445 -0.014790731 -0.07828841 -0.0012584495 -0.062076427 0.05329701 0.063881 0.050156333
0.06182501 -0.038914908 -0.108826414 -0.047724534 -0.014462576 -0.14156272 0.024673825 0.09954056
-0.06651424 -0.12849264 0.046473328 0.03455546 -0.0031029722 0.053058058 -0.015393488 0.06270983
0.057156786 -0.10577447 0.009868348 -0.0053733042 -0.019914428 -0.101806134 0.113789596 -0.07538048
0.05554605 -0.10660806 -0.023054648 0.045075368 0.04708959 -0.08286772 0.010888914 -0.069365844
0.031643786 0.064105645 0.10444599 0.08481522

layers.5.weight f4 [4, 84]
00000000: 48b4 983d ea29 10be 316b 2f3e 37f7 e5bd
00000010: adea 6abe 3199 433e 8535 a3bc 1c75 ecbd
00000020: bda9 22be de89 0bbe 8e40 49be 0ce2 fb3d
00000030: 2976 91bd 1dcb abbc 7fa2 dc3d 0be7 703b
00000040: 4143 2cbe b211 0ebe 20c1 69bd 88f9 54be
00000050: dc5e 313e e70a f13d 3339 41bd 1d0c 44be
00000060: 4af5 073e a7a2 023e 5072 da3d 2aff 493d
00000070: 71db 9dbd 0ead 613c 48fa 19be 1fd3 0d3e
00000080: d0d7 e83d 6ff8 12be 4a6e 4ebe c2a0 023c
00000090: d6fc 823d 7d02 103e ba43 0ebd 76e3 563d
000000a0: a760 52be 622c 3cbe 2955 adbd dabe 24be
000000b0: e3f7 28bc 1ea0 223d 3bfd 413d d07e 153d
000000c0: 98c5 78be d17a acbd 68fe 373d 09d4 1a3e
000000d0: d64f 17be e9e3 1bbd f06b bc3d e37b 0f3e
000000e0: 0211 963d 3b81 9dbd bc38 6fbe a971 abbd
000000f0: 9da9 173e 9668 39be 71f9 bc3d 4a7d 45bc
00000100: 1cea a63d 2658 19bc b407 21be 16d9 fabd
00000110: c71e 9c3d 0492 883d b169 143e 26c4 f0bd
00000120: 48b0 223e fbfc d3bc 2331 54bd 1374 4bbd
00000130: 1308 cebd f6a6 1c3e f88a 8ebd d744 1cbc
00000140: 7e7d 56be 14a8 223e 5731 13be 7e6e 8dbe
00000150: 7dd2 53be 6651 1c3e 2ef8 803d 51fd 233b
00000160: c36b 213e ea4c d83d a32e f23d 32ea 1bbe
00000170: 848b 443c 4034 aebd d08a 1cbe 8c41 153e
00000180: d7ac 0bbe 7e3e 4f3c 85eb ecbd 5362 e6bc
00000190: 2955 f93c 3500 97be 54c6 45be 735c 983d
000001a0: dc6e ee3d 1fa7 49be 68d2 69bd 7fa9 4b3e
000001b0: bacd 2f3d 4ccd 99bd 1d07 e63d f1ac 76be
000001c0: 2d4a ca3d b32a 333c 7229 c1bd ea91 84be
000001d0: 696f fbbd 9928 99bd b6b8 153d be5e 03be
000001e0: 8942 93bd 93e9 9d3d 266a a1bd b620 603d
000001f0: 57ae 48be 7b49 153e 66ea 8abb 4e52 cabd
00000200: 0b77 e4bb 4b00 4e3d 0cb8 693d 92d9 0a3d
00000210: de1b fcbd 8c2b 8a3d ea76 5d3d 0913 08be
00000220: 98bc 12bd 02a5 083e 5c10 47bc be96 45be
00000230: fe75 2fbd 27ef 1e3e 6569 163e 06a7 da3d
00000240: 3aee 84be 15d2 423d c32d 0e3e 09f2 99bd
00000250: 893b ae3d afb0 173e c5b4 e53d 2c1f 8abe
00000260: bdcf c23c f130 90bd 7fd1 8e3c 79ec 683c
00000270: 49e6 1c3c 8773 17be 3656 283d f6ae 873d
00000280: f5e2 25be 3346 12be e352 c33c bb1a 52bc
00000290: 1903 133e ec4d a3bb 4be5 8d3c b9ea 7abe
000002a0: f755 dbbc 1250 04be aca1 92bd 29c4 5c3d
000002b0: 3df2 14be 2fa0 2b3e c005 91be 6d3c 583e
000002c0: 89c5 4dbe 9428 05be 68c7 293c c1f3 f4bc
000002d0: 4d4e 5b3e b068 3ebe 9552 14bd aec0 9e3d
000002e0: 1098 ab3d 0bc2 b83d 5718 193e 775c f93d
000002f0: abf0 4ebe f209 9f3d b1e6 253d 11dc 17bc
00000300: d8fe 56be 1606 8ebe 640b d93d ce38 90be
00000310: b60b ccb8 6415 af3c fdf1 10be 23fb 25be
00000320: f077 fbbd b81e f73d 86cf 273e 1e5b 923c
00000330: e208 a4bd a56c 2bbe 9fcd 8cbd 9f40 0cbe
00000340: 332b 313e ac5e 3c3c 7fbe 48bd 5ca9 85bc
00000350: ee73 1b3e 9fb0 4d3d cf63 8a3d f88c cf3c
00000360: bcfa 923d 5f28 7d3d 09ac d5bd 38bd 34be
00000370: 13e1 f2bd a9b9 2fbe 0e85 3bbe b70b 1b3e
00000380: cd0e 26be 61c6 19be 00fa 7abe d9cb 5fbd
00000390: 0f42 3fbd bee2 8f3d 1900 84bd a525 d4bd
000003a0: a561 84bc 1fa2 2abe 2a8e 273e f0ef 22be
000003b0: b3e4 7f3d 8ea6 bdbd f652 fe3d 7793 9e3e
000003c0: 3c4b 62be 45a7 46be 7af6 393d 030a 5c3d
000003d0: dd25 fbbd 252d e1bd cd59 c0bd 4cfa 8b3d
000003e0: 6f8f fd3d 7fc6 edbd bf33 2f3d 7931 973c
000003f0: fd5b 153e 45b3 753d d9f2 b3bd dd35 8abc
0.07456261 -0.14078489 0.17130734 -0.11228793 -0.22941084 0.19101407 -0.019922981 -0.11545774
-0.15885063 -0.13626811 -0.19653532 0.122989744 -0.071026154 -0.020970875 0.10773181 0.0036758806
-0.1682253 -0.13873938 -0.057068944 -0.20798314 0.17321342 0.117696576 -0.04717369 -0.19145246
0.13277164 0.1275736 0.10666335 0.04931561 -0.07707871 0.01377417 -0.15036881 0.13850068
0.11369288 -0.14352582 -0.2015926 0.007972898 0.06395881 0.14063449 -0.034732558 0.052463017
-0.20544682 -0.18376306 -0.08463509 -0.16088429 -0.010313007 0.03970348 0.04736064 0.03649789
-0.24294126 -0.08421863 0.044920355 0.15119947 -0.14776549 -0.03805915 0.09200275 0.14012103
0.07327463 -0.076906644 -0.23361486 -0.08371288 0.14810796 -0.18106303 0.09227265 -0.012053797
0.081501216 -0.009359395 -0.15725595 -0.12248437 0.07623058 0.06668475 0.14493443 -0.11756162
0.15887558 -0.025877466 -0.051804673 -0.049671244 -0.10060134 0.15298066 -0.069601 -0.009537897
-0.20946309 0.15884429 -0.1437429 -0.2762336 -0.20685764 0.15265426 0.062973365 0.0025022815
0.15763764 0.10561545 0.118253015 -0.15226057 0.011996154 -0.0850606 -0.15287328 0.14575785
-0.13640152 0.012649177 -0.11568359 -0.028123057 0.030436115 -0.29492345 -0.19313937 0.07439508
0.116422385 -0.19692658 -0.057085425 0.19888876 0.042920806 -0.075098604 0.112318255 -0.2408941
0.09877429 0.010935473 -0.09431733 -0.25892574 -0.12277109 -0.074784465 0.036553107 -0.1282911
-0.07190425 0.07710566 -0.07881574 0.054718696 -0.19597755 0.14578812 -0.0042393683 -0.098789796
-0.006972199 0.05029325 0.057060286 0.033898897 -0.12310003 0.06746587 0.054068483 -0.13288511
-0.03582439 0.13344195 -0.0121498965 -0.19295785 -0.042837135 0.15520917 0.14688642 0.106763884
-0.25963002 0.04756363 0.13884644 -0.07516868 0.08507449 0.14813493 0.1121612 -0.26976907
0.023780698 -0.07040585 0.01743388 0.014216536 0.009576389 -0.14790164 0.041097842 0.06625168
-0.16199858 -0.14284591 0.023843234 -0.012823756 0.1435665 -0.0049836542 0.01732125 -0.24503602
-0.02677439 -0.1292117 -0.07159743 0.05389801 -0.14545532 0.16760324 -0.283247 0.211168
-0.20094885 -0.1300376 0.010362484 -0.029901387 0.21416588 -0.18594623 -0.03621157 0.077515945
0.08378613 0.09021386 0.14950691 0.121758394 -0.20208995 0.07765569 0.040503208 -0.0092687765
-0.20995653 -0.27739018 0.10597876 -0.2816834 -9.729659e-05 0.021372505 -0.14154811 -0.16209082
-0.12278736 0.12066406 0.16387758 0.017865714 -0.08009507 -0.16740663 -0.068751566 -0.13696526
0.17301635 0.011497181 -0.049009796 -0.016316108 0.15180942 0.050217267 0.06757318 0.025335774
0.0717673 0.06180608 -0.10433204 -0.17650306 -0.11859336 -0.17160667 -0.18312475 0.15141188
-0.16216584 -0.15017082 -0.2450943 -0.054637764 -0.046693858 0.070256695 -0.06445331 -0.103587426
-0.016159842 -0.16663407 0.16362825 -0.15911841 0.062473964 -0.092602834 0.12418167 0.30971882
-0.22099012 -0.19399746 0.045401074 0.053720485 -0.12263081 -0.10994939 -0.09392128 0.0683485
0.123808734 -0.11610126 0.04277396 0.018456208 0.14585872 0.059985418 -0.08786554 -0.016871387

layers.5.bias f4 [4]
00000000: 9639 793d 5567 8e3d 84b7 5a3d 8e4b 9a3d
0.060845934 0.06953303 0.05339767 0.07533942
